{
  "format": "graph-model",
  "generatedBy": "2.3.1",
  "convertedBy": "TensorFlow.js Converter v2.7.0",
  "userDefinedMetadata": {
    "signature": {
      "inputs": {
        "input_tensor:0": {
          "name": "input_tensor:0",
          "dtype": "DT_UINT8",
          "tensorShape": {
            "dim": [
              {
                "size": "1"
              },
              {
                "size": "-1"
              },
              {
                "size": "-1"
              },
              {
                "size": "3"
              }
            ]
          }
        }
      },
      "outputs": {
        "Identity_4:0": {
          "name": "Identity_4:0",
          "dtype": "DT_FLOAT",
          "tensorShape": {
            "dim": [
              {
                "size": "1"
              },
              {
                "size": "100"
              }
            ]
          }
        },
        "Identity_1:0": {
          "name": "Identity_1:0",
          "dtype": "DT_FLOAT",
          "tensorShape": {
            "dim": [
              {
                "size": "1"
              },
              {
                "size": "100"
              },
              {
                "size": "4"
              }
            ]
          }
        },
        "Identity_7:0": {
          "name": "Identity_7:0",
          "dtype": "DT_FLOAT",
          "tensorShape": {
            "dim": [
              {
                "size": "1"
              },
              {
                "size": "1917"
              },
              {
                "size": "5"
              }
            ]
          }
        },
        "Identity:0": {
          "name": "Identity:0",
          "dtype": "DT_FLOAT",
          "tensorShape": {
            "dim": [
              {
                "size": "1"
              },
              {
                "size": "100"
              }
            ]
          }
        },
        "Identity_3:0": {
          "name": "Identity_3:0",
          "dtype": "DT_FLOAT",
          "tensorShape": {
            "dim": [
              {
                "size": "1"
              },
              {
                "size": "100"
              },
              {
                "size": "5"
              }
            ]
          }
        },
        "Identity_2:0": {
          "name": "Identity_2:0",
          "dtype": "DT_FLOAT",
          "tensorShape": {
            "dim": [
              {
                "size": "1"
              },
              {
                "size": "100"
              }
            ]
          }
        },
        "Identity_5:0": {
          "name": "Identity_5:0",
          "dtype": "DT_FLOAT",
          "tensorShape": {
            "dim": [
              {
                "size": "1"
              }
            ]
          }
        },
        "Identity_6:0": {
          "name": "Identity_6:0",
          "dtype": "DT_FLOAT",
          "tensorShape": {
            "dim": [
              {
                "size": "1"
              },
              {
                "size": "1917"
              },
              {
                "size": "4"
              }
            ]
          }
        }
      }
    }
  },
  "modelTopology": {
    "node": [
      {
        "name": "StatefulPartitionedCall/Postprocessor/BatchMultiClassNonMaxSuppression/PadOrClipBoxList/zeros_7",
        "op": "Const",
        "attr": {
          "dtype": {
            "type": "DT_INT32"
          },
          "value": {
            "tensor": {
              "dtype": "DT_INT32",
              "tensorShape": {
                "dim": [
                  {
                    "size": "1"
                  }
                ]
              }
            }
          }
        }
      },
      {
        "name": "StatefulPartitionedCall/Postprocessor/BatchMultiClassNonMaxSuppression/PadOrClipBoxList/sub_13/x",
        "op": "Const",
        "attr": {
          "value": {
            "tensor": {
              "dtype": "DT_INT32",
              "tensorShape": {}
            }
          },
          "dtype": {
            "type": "DT_INT32"
          }
        }
      },
      {
        "name": "StatefulPartitionedCall/Postprocessor/BatchMultiClassNonMaxSuppression/PadOrClipBoxList/zeros_6",
        "op": "Const",
        "attr": {
          "dtype": {
            "type": "DT_INT32"
          },
          "value": {
            "tensor": {
              "dtype": "DT_INT32",
              "tensorShape": {
                "dim": [
                  {
                    "size": "1"
                  }
                ]
              }
            }
          }
        }
      },
      {
        "name": "StatefulPartitionedCall/Postprocessor/BatchMultiClassNonMaxSuppression/MultiClassNonMaxSuppression/Gather/GatherV2_3/axis",
        "op": "Const",
        "attr": {
          "dtype": {
            "type": "DT_INT32"
          },
          "value": {
            "tensor": {
              "dtype": "DT_INT32",
              "tensorShape": {}
            }
          }
        }
      },
      {
        "name": "StatefulPartitionedCall/Postprocessor/BatchMultiClassNonMaxSuppression/MultiClassNonMaxSuppression/Gather_1/GatherV2_3/axis",
        "op": "Const",
        "attr": {
          "value": {
            "tensor": {
              "dtype": "DT_INT32",
              "tensorShape": {}
            }
          },
          "dtype": {
            "type": "DT_INT32"
          }
        }
      },
      {
        "name": "StatefulPartitionedCall/Postprocessor/BatchMultiClassNonMaxSuppression/MultiClassNonMaxSuppression/Gather_2/GatherV2_3/axis",
        "op": "Const",
        "attr": {
          "value": {
            "tensor": {
              "dtype": "DT_INT32",
              "tensorShape": {}
            }
          },
          "dtype": {
            "type": "DT_INT32"
          }
        }
      },
      {
        "name": "StatefulPartitionedCall/Postprocessor/BatchMultiClassNonMaxSuppression/Reshape_3",
        "op": "Const",
        "attr": {
          "value": {
            "tensor": {
              "dtype": "DT_FLOAT",
              "tensorShape": {
                "dim": [
                  {
                    "size": "1917"
                  }
                ]
              }
            }
          },
          "dtype": {
            "type": "DT_FLOAT"
          }
        }
      },
      {
        "name": "StatefulPartitionedCall/Postprocessor/BatchMultiClassNonMaxSuppression/MultiClassNonMaxSuppression/Gather_3/GatherV2_3/axis",
        "op": "Const",
        "attr": {
          "value": {
            "tensor": {
              "dtype": "DT_INT32",
              "tensorShape": {}
            }
          },
          "dtype": {
            "type": "DT_INT32"
          }
        }
      },
      {
        "name": "StatefulPartitionedCall/Postprocessor/BatchMultiClassNonMaxSuppression/MultiClassNonMaxSuppression/Concatenate/concat_3/axis",
        "op": "Const",
        "attr": {
          "dtype": {
            "type": "DT_INT32"
          },
          "value": {
            "tensor": {
              "dtype": "DT_INT32",
              "tensorShape": {}
            }
          }
        }
      },
      {
        "name": "StatefulPartitionedCall/Postprocessor/BatchMultiClassNonMaxSuppression/MultiClassNonMaxSuppression/SortByField/Gather/GatherV2_3/axis",
        "op": "Const",
        "attr": {
          "dtype": {
            "type": "DT_INT32"
          },
          "value": {
            "tensor": {
              "dtype": "DT_INT32",
              "tensorShape": {}
            }
          }
        }
      },
      {
        "name": "StatefulPartitionedCall/Postprocessor/BatchMultiClassNonMaxSuppression/MultiClassNonMaxSuppression/ClipToWindow/Gather/GatherV2_3/axis",
        "op": "Const",
        "attr": {
          "dtype": {
            "type": "DT_INT32"
          },
          "value": {
            "tensor": {
              "dtype": "DT_INT32",
              "tensorShape": {}
            }
          }
        }
      },
      {
        "name": "StatefulPartitionedCall/Postprocessor/BatchMultiClassNonMaxSuppression/MultiClassNonMaxSuppression/SortByField_1/Gather/GatherV2_3/axis",
        "op": "Const",
        "attr": {
          "dtype": {
            "type": "DT_INT32"
          },
          "value": {
            "tensor": {
              "dtype": "DT_INT32",
              "tensorShape": {}
            }
          }
        }
      },
      {
        "name": "StatefulPartitionedCall/Postprocessor/BatchMultiClassNonMaxSuppression/MultiClassNonMaxSuppression/Gather_4/GatherV2_3/axis",
        "op": "Const",
        "attr": {
          "dtype": {
            "type": "DT_INT32"
          },
          "value": {
            "tensor": {
              "dtype": "DT_INT32",
              "tensorShape": {}
            }
          }
        }
      },
      {
        "name": "StatefulPartitionedCall/Postprocessor/BatchMultiClassNonMaxSuppression/MultiClassNonMaxSuppression/Gather_5/GatherV2_3/axis",
        "op": "Const",
        "attr": {
          "dtype": {
            "type": "DT_INT32"
          },
          "value": {
            "tensor": {
              "dtype": "DT_INT32",
              "tensorShape": {}
            }
          }
        }
      },
      {
        "name": "StatefulPartitionedCall/Postprocessor/BatchMultiClassNonMaxSuppression/PadOrClipBoxList/strided_slice_12/stack",
        "op": "Const",
        "attr": {
          "dtype": {
            "type": "DT_INT32"
          },
          "value": {
            "tensor": {
              "dtype": "DT_INT32",
              "tensorShape": {
                "dim": [
                  {
                    "size": "1"
                  }
                ]
              }
            }
          }
        }
      },
      {
        "name": "StatefulPartitionedCall/Postprocessor/BatchMultiClassNonMaxSuppression/PadOrClipBoxList/strided_slice_12/stack_1",
        "op": "Const",
        "attr": {
          "value": {
            "tensor": {
              "dtype": "DT_INT32",
              "tensorShape": {
                "dim": [
                  {
                    "size": "1"
                  }
                ]
              }
            }
          },
          "dtype": {
            "type": "DT_INT32"
          }
        }
      },
      {
        "name": "StatefulPartitionedCall/Postprocessor/BatchMultiClassNonMaxSuppression/PadOrClipBoxList/strided_slice_12/stack_2",
        "op": "Const",
        "attr": {
          "dtype": {
            "type": "DT_INT32"
          },
          "value": {
            "tensor": {
              "dtype": "DT_INT32",
              "tensorShape": {
                "dim": [
                  {
                    "size": "1"
                  }
                ]
              }
            }
          }
        }
      },
      {
        "name": "StatefulPartitionedCall/Postprocessor/BatchMultiClassNonMaxSuppression/PadOrClipBoxList/sub_12/y",
        "op": "Const",
        "attr": {
          "value": {
            "tensor": {
              "dtype": "DT_INT32",
              "tensorShape": {}
            }
          },
          "dtype": {
            "type": "DT_INT32"
          }
        }
      },
      {
        "name": "StatefulPartitionedCall/Postprocessor/BatchMultiClassNonMaxSuppression/PadOrClipBoxList/Greater_6/y",
        "op": "Const",
        "attr": {
          "dtype": {
            "type": "DT_INT32"
          },
          "value": {
            "tensor": {
              "dtype": "DT_INT32",
              "tensorShape": {}
            }
          }
        }
      },
      {
        "name": "StatefulPartitionedCall/Postprocessor/BatchMultiClassNonMaxSuppression/PadOrClipBoxList/Select_6/t",
        "op": "Const",
        "attr": {
          "value": {
            "tensor": {
              "dtype": "DT_INT32",
              "tensorShape": {}
            }
          },
          "dtype": {
            "type": "DT_INT32"
          }
        }
      },
      {
        "name": "StatefulPartitionedCall/Postprocessor/BatchMultiClassNonMaxSuppression/PadOrClipBoxList/Select_6/e",
        "op": "Const",
        "attr": {
          "dtype": {
            "type": "DT_INT32"
          },
          "value": {
            "tensor": {
              "dtype": "DT_INT32",
              "tensorShape": {}
            }
          }
        }
      },
      {
        "name": "StatefulPartitionedCall/Postprocessor/BatchMultiClassNonMaxSuppression/PadOrClipBoxList/strided_slice_13/stack",
        "op": "Const",
        "attr": {
          "value": {
            "tensor": {
              "dtype": "DT_INT32",
              "tensorShape": {
                "dim": [
                  {
                    "size": "1"
                  }
                ]
              }
            }
          },
          "dtype": {
            "type": "DT_INT32"
          }
        }
      },
      {
        "name": "StatefulPartitionedCall/Postprocessor/BatchMultiClassNonMaxSuppression/PadOrClipBoxList/strided_slice_13/stack_1",
        "op": "Const",
        "attr": {
          "dtype": {
            "type": "DT_INT32"
          },
          "value": {
            "tensor": {
              "dtype": "DT_INT32",
              "tensorShape": {
                "dim": [
                  {
                    "size": "1"
                  }
                ]
              }
            }
          }
        }
      },
      {
        "name": "StatefulPartitionedCall/Postprocessor/BatchMultiClassNonMaxSuppression/PadOrClipBoxList/strided_slice_13/stack_2",
        "op": "Const",
        "attr": {
          "value": {
            "tensor": {
              "dtype": "DT_INT32",
              "tensorShape": {
                "dim": [
                  {
                    "size": "1"
                  }
                ]
              }
            }
          },
          "dtype": {
            "type": "DT_INT32"
          }
        }
      },
      {
        "name": "StatefulPartitionedCall/Postprocessor/BatchMultiClassNonMaxSuppression/PadOrClipBoxList/zeros_1",
        "op": "Const",
        "attr": {
          "dtype": {
            "type": "DT_INT32"
          },
          "value": {
            "tensor": {
              "dtype": "DT_INT32",
              "tensorShape": {
                "dim": [
                  {
                    "size": "2"
                  }
                ]
              }
            }
          }
        }
      },
      {
        "name": "StatefulPartitionedCall/Postprocessor/BatchMultiClassNonMaxSuppression/PadOrClipBoxList/sub_2/x",
        "op": "Const",
        "attr": {
          "value": {
            "tensor": {
              "dtype": "DT_INT32",
              "tensorShape": {}
            }
          },
          "dtype": {
            "type": "DT_INT32"
          }
        }
      },
      {
        "name": "StatefulPartitionedCall/Postprocessor/BatchMultiClassNonMaxSuppression/PadOrClipBoxList/strided_slice_2/stack",
        "op": "Const",
        "attr": {
          "value": {
            "tensor": {
              "dtype": "DT_INT32",
              "tensorShape": {
                "dim": [
                  {
                    "size": "1"
                  }
                ]
              }
            }
          },
          "dtype": {
            "type": "DT_INT32"
          }
        }
      },
      {
        "name": "StatefulPartitionedCall/Postprocessor/BatchMultiClassNonMaxSuppression/PadOrClipBoxList/strided_slice_2/stack_1",
        "op": "Const",
        "attr": {
          "value": {
            "tensor": {
              "dtype": "DT_INT32",
              "tensorShape": {
                "dim": [
                  {
                    "size": "1"
                  }
                ]
              }
            }
          },
          "dtype": {
            "type": "DT_INT32"
          }
        }
      },
      {
        "name": "StatefulPartitionedCall/Postprocessor/BatchMultiClassNonMaxSuppression/PadOrClipBoxList/strided_slice_2/stack_2",
        "op": "Const",
        "attr": {
          "value": {
            "tensor": {
              "dtype": "DT_INT32",
              "tensorShape": {
                "dim": [
                  {
                    "size": "1"
                  }
                ]
              }
            }
          },
          "dtype": {
            "type": "DT_INT32"
          }
        }
      },
      {
        "name": "StatefulPartitionedCall/Postprocessor/BatchMultiClassNonMaxSuppression/PadOrClipBoxList/sub_3/x",
        "op": "Const",
        "attr": {
          "dtype": {
            "type": "DT_INT32"
          },
          "value": {
            "tensor": {
              "dtype": "DT_INT32",
              "tensorShape": {}
            }
          }
        }
      },
      {
        "name": "StatefulPartitionedCall/Postprocessor/BatchMultiClassNonMaxSuppression/PadOrClipBoxList/zeros",
        "op": "Const",
        "attr": {
          "dtype": {
            "type": "DT_INT32"
          },
          "value": {
            "tensor": {
              "dtype": "DT_INT32",
              "tensorShape": {
                "dim": [
                  {
                    "size": "2"
                  }
                ]
              }
            }
          }
        }
      },
      {
        "name": "StatefulPartitionedCall/Postprocessor/BatchMultiClassNonMaxSuppression/PadOrClipBoxList/strided_slice/stack",
        "op": "Const",
        "attr": {
          "dtype": {
            "type": "DT_INT32"
          },
          "value": {
            "tensor": {
              "dtype": "DT_INT32",
              "tensorShape": {
                "dim": [
                  {
                    "size": "1"
                  }
                ]
              }
            }
          }
        }
      },
      {
        "name": "StatefulPartitionedCall/Postprocessor/BatchMultiClassNonMaxSuppression/PadOrClipBoxList/strided_slice/stack_1",
        "op": "Const",
        "attr": {
          "value": {
            "tensor": {
              "dtype": "DT_INT32",
              "tensorShape": {
                "dim": [
                  {
                    "size": "1"
                  }
                ]
              }
            }
          },
          "dtype": {
            "type": "DT_INT32"
          }
        }
      },
      {
        "name": "StatefulPartitionedCall/Postprocessor/BatchMultiClassNonMaxSuppression/PadOrClipBoxList/strided_slice/stack_2",
        "op": "Const",
        "attr": {
          "dtype": {
            "type": "DT_INT32"
          },
          "value": {
            "tensor": {
              "dtype": "DT_INT32",
              "tensorShape": {
                "dim": [
                  {
                    "size": "1"
                  }
                ]
              }
            }
          }
        }
      },
      {
        "name": "StatefulPartitionedCall/Postprocessor/BatchMultiClassNonMaxSuppression/PadOrClipBoxList/sub/y",
        "op": "Const",
        "attr": {
          "dtype": {
            "type": "DT_INT32"
          },
          "value": {
            "tensor": {
              "dtype": "DT_INT32",
              "tensorShape": {}
            }
          }
        }
      },
      {
        "name": "StatefulPartitionedCall/Postprocessor/BatchMultiClassNonMaxSuppression/PadOrClipBoxList/Greater/y",
        "op": "Const",
        "attr": {
          "dtype": {
            "type": "DT_INT32"
          },
          "value": {
            "tensor": {
              "dtype": "DT_INT32",
              "tensorShape": {}
            }
          }
        }
      },
      {
        "name": "StatefulPartitionedCall/Postprocessor/BatchMultiClassNonMaxSuppression/PadOrClipBoxList/Select/t",
        "op": "Const",
        "attr": {
          "dtype": {
            "type": "DT_INT32"
          },
          "value": {
            "tensor": {
              "dtype": "DT_INT32",
              "tensorShape": {}
            }
          }
        }
      },
      {
        "name": "StatefulPartitionedCall/Postprocessor/BatchMultiClassNonMaxSuppression/PadOrClipBoxList/Select/e",
        "op": "Const",
        "attr": {
          "value": {
            "tensor": {
              "dtype": "DT_INT32",
              "tensorShape": {}
            }
          },
          "dtype": {
            "type": "DT_INT32"
          }
        }
      },
      {
        "name": "StatefulPartitionedCall/Postprocessor/BatchMultiClassNonMaxSuppression/MultiClassNonMaxSuppression/Gather_4/GatherV2_6/axis",
        "op": "Const",
        "attr": {
          "value": {
            "tensor": {
              "dtype": "DT_INT32",
              "tensorShape": {}
            }
          },
          "dtype": {
            "type": "DT_INT32"
          }
        }
      },
      {
        "name": "StatefulPartitionedCall/Postprocessor/BatchMultiClassNonMaxSuppression/MultiClassNonMaxSuppression/Gather_5/GatherV2_6/axis",
        "op": "Const",
        "attr": {
          "value": {
            "tensor": {
              "dtype": "DT_INT32",
              "tensorShape": {}
            }
          },
          "dtype": {
            "type": "DT_INT32"
          }
        }
      },
      {
        "name": "StatefulPartitionedCall/Postprocessor/BatchMultiClassNonMaxSuppression/PadOrClipBoxList/strided_slice_1/stack",
        "op": "Const",
        "attr": {
          "value": {
            "tensor": {
              "dtype": "DT_INT32",
              "tensorShape": {
                "dim": [
                  {
                    "size": "1"
                  }
                ]
              }
            }
          },
          "dtype": {
            "type": "DT_INT32"
          }
        }
      },
      {
        "name": "StatefulPartitionedCall/Postprocessor/BatchMultiClassNonMaxSuppression/PadOrClipBoxList/strided_slice_1/stack_1",
        "op": "Const",
        "attr": {
          "value": {
            "tensor": {
              "dtype": "DT_INT32",
              "tensorShape": {
                "dim": [
                  {
                    "size": "1"
                  }
                ]
              }
            }
          },
          "dtype": {
            "type": "DT_INT32"
          }
        }
      },
      {
        "name": "StatefulPartitionedCall/Postprocessor/BatchMultiClassNonMaxSuppression/PadOrClipBoxList/strided_slice_1/stack_2",
        "op": "Const",
        "attr": {
          "value": {
            "tensor": {
              "dtype": "DT_INT32",
              "tensorShape": {
                "dim": [
                  {
                    "size": "1"
                  }
                ]
              }
            }
          },
          "dtype": {
            "type": "DT_INT32"
          }
        }
      },
      {
        "name": "StatefulPartitionedCall/Postprocessor/BatchMultiClassNonMaxSuppression/PadOrClipBoxList/sub_1/y",
        "op": "Const",
        "attr": {
          "dtype": {
            "type": "DT_INT32"
          },
          "value": {
            "tensor": {
              "dtype": "DT_INT32",
              "tensorShape": {}
            }
          }
        }
      },
      {
        "name": "StatefulPartitionedCall/Postprocessor/BatchMultiClassNonMaxSuppression/PadOrClipBoxList/Greater_1/y",
        "op": "Const",
        "attr": {
          "dtype": {
            "type": "DT_INT32"
          },
          "value": {
            "tensor": {
              "dtype": "DT_INT32",
              "tensorShape": {}
            }
          }
        }
      },
      {
        "name": "StatefulPartitionedCall/Postprocessor/BatchMultiClassNonMaxSuppression/PadOrClipBoxList/Select_1/t",
        "op": "Const",
        "attr": {
          "dtype": {
            "type": "DT_INT32"
          },
          "value": {
            "tensor": {
              "dtype": "DT_INT32",
              "tensorShape": {}
            }
          }
        }
      },
      {
        "name": "StatefulPartitionedCall/Postprocessor/BatchMultiClassNonMaxSuppression/PadOrClipBoxList/Select_1/e",
        "op": "Const",
        "attr": {
          "value": {
            "tensor": {
              "dtype": "DT_INT32",
              "tensorShape": {}
            }
          },
          "dtype": {
            "type": "DT_INT32"
          }
        }
      },
      {
        "name": "StatefulPartitionedCall/Postprocessor/BatchMultiClassNonMaxSuppression/PadOrClipBoxList/strided_slice_3/stack",
        "op": "Const",
        "attr": {
          "value": {
            "tensor": {
              "dtype": "DT_INT32",
              "tensorShape": {
                "dim": [
                  {
                    "size": "1"
                  }
                ]
              }
            }
          },
          "dtype": {
            "type": "DT_INT32"
          }
        }
      },
      {
        "name": "StatefulPartitionedCall/Postprocessor/BatchMultiClassNonMaxSuppression/PadOrClipBoxList/strided_slice_3/stack_1",
        "op": "Const",
        "attr": {
          "dtype": {
            "type": "DT_INT32"
          },
          "value": {
            "tensor": {
              "dtype": "DT_INT32",
              "tensorShape": {
                "dim": [
                  {
                    "size": "1"
                  }
                ]
              }
            }
          }
        }
      },
      {
        "name": "StatefulPartitionedCall/Postprocessor/BatchMultiClassNonMaxSuppression/PadOrClipBoxList/strided_slice_3/stack_2",
        "op": "Const",
        "attr": {
          "dtype": {
            "type": "DT_INT32"
          },
          "value": {
            "tensor": {
              "dtype": "DT_INT32",
              "tensorShape": {
                "dim": [
                  {
                    "size": "1"
                  }
                ]
              }
            }
          }
        }
      },
      {
        "name": "StatefulPartitionedCall/Postprocessor/BatchMultiClassNonMaxSuppression/PadOrClipBoxList/zeros_11",
        "op": "Const",
        "attr": {
          "dtype": {
            "type": "DT_INT32"
          },
          "value": {
            "tensor": {
              "dtype": "DT_INT32",
              "tensorShape": {
                "dim": [
                  {
                    "size": "1"
                  }
                ]
              }
            }
          }
        }
      },
      {
        "name": "StatefulPartitionedCall/Postprocessor/BatchMultiClassNonMaxSuppression/PadOrClipBoxList/sub_19/x",
        "op": "Const",
        "attr": {
          "value": {
            "tensor": {
              "dtype": "DT_INT32",
              "tensorShape": {}
            }
          },
          "dtype": {
            "type": "DT_INT32"
          }
        }
      },
      {
        "name": "StatefulPartitionedCall/Postprocessor/BatchMultiClassNonMaxSuppression/PadOrClipBoxList/zeros_10",
        "op": "Const",
        "attr": {
          "dtype": {
            "type": "DT_INT32"
          },
          "value": {
            "tensor": {
              "dtype": "DT_INT32",
              "tensorShape": {
                "dim": [
                  {
                    "size": "1"
                  }
                ]
              }
            }
          }
        }
      },
      {
        "name": "StatefulPartitionedCall/Postprocessor/BatchMultiClassNonMaxSuppression/MultiClassNonMaxSuppression/Concatenate/concat_5",
        "op": "Const",
        "attr": {
          "dtype": {
            "type": "DT_FLOAT"
          },
          "value": {
            "tensor": {
              "dtype": "DT_FLOAT",
              "tensorShape": {
                "dim": [
                  {
                    "size": "400"
                  }
                ]
              }
            }
          }
        }
      },
      {
        "name": "StatefulPartitionedCall/Postprocessor/BatchMultiClassNonMaxSuppression/MultiClassNonMaxSuppression/SortByField/Gather/GatherV2_5/axis",
        "op": "Const",
        "attr": {
          "dtype": {
            "type": "DT_INT32"
          },
          "value": {
            "tensor": {
              "dtype": "DT_INT32",
              "tensorShape": {}
            }
          }
        }
      },
      {
        "name": "StatefulPartitionedCall/Postprocessor/BatchMultiClassNonMaxSuppression/MultiClassNonMaxSuppression/ClipToWindow/Gather/GatherV2_5/axis",
        "op": "Const",
        "attr": {
          "dtype": {
            "type": "DT_INT32"
          },
          "value": {
            "tensor": {
              "dtype": "DT_INT32",
              "tensorShape": {}
            }
          }
        }
      },
      {
        "name": "StatefulPartitionedCall/Postprocessor/BatchMultiClassNonMaxSuppression/MultiClassNonMaxSuppression/SortByField_1/Gather/GatherV2_5/axis",
        "op": "Const",
        "attr": {
          "value": {
            "tensor": {
              "dtype": "DT_INT32",
              "tensorShape": {}
            }
          },
          "dtype": {
            "type": "DT_INT32"
          }
        }
      },
      {
        "name": "StatefulPartitionedCall/Postprocessor/BatchMultiClassNonMaxSuppression/MultiClassNonMaxSuppression/Gather_4/GatherV2_5/axis",
        "op": "Const",
        "attr": {
          "dtype": {
            "type": "DT_INT32"
          },
          "value": {
            "tensor": {
              "dtype": "DT_INT32",
              "tensorShape": {}
            }
          }
        }
      },
      {
        "name": "StatefulPartitionedCall/Postprocessor/BatchMultiClassNonMaxSuppression/MultiClassNonMaxSuppression/Gather_5/GatherV2_5/axis",
        "op": "Const",
        "attr": {
          "dtype": {
            "type": "DT_INT32"
          },
          "value": {
            "tensor": {
              "dtype": "DT_INT32",
              "tensorShape": {}
            }
          }
        }
      },
      {
        "name": "StatefulPartitionedCall/Postprocessor/BatchMultiClassNonMaxSuppression/PadOrClipBoxList/strided_slice_18/stack",
        "op": "Const",
        "attr": {
          "value": {
            "tensor": {
              "dtype": "DT_INT32",
              "tensorShape": {
                "dim": [
                  {
                    "size": "1"
                  }
                ]
              }
            }
          },
          "dtype": {
            "type": "DT_INT32"
          }
        }
      },
      {
        "name": "StatefulPartitionedCall/Postprocessor/BatchMultiClassNonMaxSuppression/PadOrClipBoxList/strided_slice_18/stack_1",
        "op": "Const",
        "attr": {
          "dtype": {
            "type": "DT_INT32"
          },
          "value": {
            "tensor": {
              "dtype": "DT_INT32",
              "tensorShape": {
                "dim": [
                  {
                    "size": "1"
                  }
                ]
              }
            }
          }
        }
      },
      {
        "name": "StatefulPartitionedCall/Postprocessor/BatchMultiClassNonMaxSuppression/PadOrClipBoxList/strided_slice_18/stack_2",
        "op": "Const",
        "attr": {
          "value": {
            "tensor": {
              "dtype": "DT_INT32",
              "tensorShape": {
                "dim": [
                  {
                    "size": "1"
                  }
                ]
              }
            }
          },
          "dtype": {
            "type": "DT_INT32"
          }
        }
      },
      {
        "name": "StatefulPartitionedCall/Postprocessor/BatchMultiClassNonMaxSuppression/PadOrClipBoxList/sub_18/y",
        "op": "Const",
        "attr": {
          "dtype": {
            "type": "DT_INT32"
          },
          "value": {
            "tensor": {
              "dtype": "DT_INT32",
              "tensorShape": {}
            }
          }
        }
      },
      {
        "name": "StatefulPartitionedCall/Postprocessor/BatchMultiClassNonMaxSuppression/PadOrClipBoxList/Greater_9/y",
        "op": "Const",
        "attr": {
          "dtype": {
            "type": "DT_INT32"
          },
          "value": {
            "tensor": {
              "dtype": "DT_INT32",
              "tensorShape": {}
            }
          }
        }
      },
      {
        "name": "StatefulPartitionedCall/Postprocessor/BatchMultiClassNonMaxSuppression/PadOrClipBoxList/Select_9/t",
        "op": "Const",
        "attr": {
          "value": {
            "tensor": {
              "dtype": "DT_INT32",
              "tensorShape": {}
            }
          },
          "dtype": {
            "type": "DT_INT32"
          }
        }
      },
      {
        "name": "StatefulPartitionedCall/Postprocessor/BatchMultiClassNonMaxSuppression/PadOrClipBoxList/Select_9/e",
        "op": "Const",
        "attr": {
          "value": {
            "tensor": {
              "dtype": "DT_INT32",
              "tensorShape": {}
            }
          },
          "dtype": {
            "type": "DT_INT32"
          }
        }
      },
      {
        "name": "StatefulPartitionedCall/Postprocessor/BatchMultiClassNonMaxSuppression/PadOrClipBoxList/strided_slice_19/stack",
        "op": "Const",
        "attr": {
          "value": {
            "tensor": {
              "dtype": "DT_INT32",
              "tensorShape": {
                "dim": [
                  {
                    "size": "1"
                  }
                ]
              }
            }
          },
          "dtype": {
            "type": "DT_INT32"
          }
        }
      },
      {
        "name": "StatefulPartitionedCall/Postprocessor/BatchMultiClassNonMaxSuppression/PadOrClipBoxList/strided_slice_19/stack_1",
        "op": "Const",
        "attr": {
          "value": {
            "tensor": {
              "dtype": "DT_INT32",
              "tensorShape": {
                "dim": [
                  {
                    "size": "1"
                  }
                ]
              }
            }
          },
          "dtype": {
            "type": "DT_INT32"
          }
        }
      },
      {
        "name": "StatefulPartitionedCall/Postprocessor/BatchMultiClassNonMaxSuppression/PadOrClipBoxList/strided_slice_19/stack_2",
        "op": "Const",
        "attr": {
          "dtype": {
            "type": "DT_INT32"
          },
          "value": {
            "tensor": {
              "dtype": "DT_INT32",
              "tensorShape": {
                "dim": [
                  {
                    "size": "1"
                  }
                ]
              }
            }
          }
        }
      },
      {
        "name": "StatefulPartitionedCall/add/y",
        "op": "Const",
        "attr": {
          "dtype": {
            "type": "DT_FLOAT"
          },
          "value": {
            "tensor": {
              "dtype": "DT_FLOAT",
              "tensorShape": {}
            }
          }
        }
      },
      {
        "name": "StatefulPartitionedCall/Postprocessor/BatchMultiClassNonMaxSuppression/PadOrClipBoxList/zeros_9",
        "op": "Const",
        "attr": {
          "value": {
            "tensor": {
              "dtype": "DT_INT32",
              "tensorShape": {
                "dim": [
                  {
                    "size": "2"
                  }
                ]
              }
            }
          },
          "dtype": {
            "type": "DT_INT32"
          }
        }
      },
      {
        "name": "StatefulPartitionedCall/Postprocessor/BatchMultiClassNonMaxSuppression/PadOrClipBoxList/sub_16/x",
        "op": "Const",
        "attr": {
          "dtype": {
            "type": "DT_INT32"
          },
          "value": {
            "tensor": {
              "dtype": "DT_INT32",
              "tensorShape": {}
            }
          }
        }
      },
      {
        "name": "StatefulPartitionedCall/Postprocessor/BatchMultiClassNonMaxSuppression/PadOrClipBoxList/strided_slice_16/stack",
        "op": "Const",
        "attr": {
          "dtype": {
            "type": "DT_INT32"
          },
          "value": {
            "tensor": {
              "dtype": "DT_INT32",
              "tensorShape": {
                "dim": [
                  {
                    "size": "1"
                  }
                ]
              }
            }
          }
        }
      },
      {
        "name": "StatefulPartitionedCall/Postprocessor/BatchMultiClassNonMaxSuppression/PadOrClipBoxList/strided_slice_16/stack_1",
        "op": "Const",
        "attr": {
          "value": {
            "tensor": {
              "dtype": "DT_INT32",
              "tensorShape": {
                "dim": [
                  {
                    "size": "1"
                  }
                ]
              }
            }
          },
          "dtype": {
            "type": "DT_INT32"
          }
        }
      },
      {
        "name": "StatefulPartitionedCall/Postprocessor/BatchMultiClassNonMaxSuppression/PadOrClipBoxList/strided_slice_16/stack_2",
        "op": "Const",
        "attr": {
          "dtype": {
            "type": "DT_INT32"
          },
          "value": {
            "tensor": {
              "dtype": "DT_INT32",
              "tensorShape": {
                "dim": [
                  {
                    "size": "1"
                  }
                ]
              }
            }
          }
        }
      },
      {
        "name": "StatefulPartitionedCall/Postprocessor/BatchMultiClassNonMaxSuppression/PadOrClipBoxList/sub_17/x",
        "op": "Const",
        "attr": {
          "dtype": {
            "type": "DT_INT32"
          },
          "value": {
            "tensor": {
              "dtype": "DT_INT32",
              "tensorShape": {}
            }
          }
        }
      },
      {
        "name": "StatefulPartitionedCall/Postprocessor/BatchMultiClassNonMaxSuppression/PadOrClipBoxList/zeros_8",
        "op": "Const",
        "attr": {
          "value": {
            "tensor": {
              "dtype": "DT_INT32",
              "tensorShape": {
                "dim": [
                  {
                    "size": "2"
                  }
                ]
              }
            }
          },
          "dtype": {
            "type": "DT_INT32"
          }
        }
      },
      {
        "name": "StatefulPartitionedCall/Postprocessor/BatchMultiClassNonMaxSuppression/PadOrClipBoxList/strided_slice_14/stack",
        "op": "Const",
        "attr": {
          "dtype": {
            "type": "DT_INT32"
          },
          "value": {
            "tensor": {
              "dtype": "DT_INT32",
              "tensorShape": {
                "dim": [
                  {
                    "size": "1"
                  }
                ]
              }
            }
          }
        }
      },
      {
        "name": "StatefulPartitionedCall/Postprocessor/BatchMultiClassNonMaxSuppression/PadOrClipBoxList/strided_slice_14/stack_1",
        "op": "Const",
        "attr": {
          "value": {
            "tensor": {
              "dtype": "DT_INT32",
              "tensorShape": {
                "dim": [
                  {
                    "size": "1"
                  }
                ]
              }
            }
          },
          "dtype": {
            "type": "DT_INT32"
          }
        }
      },
      {
        "name": "StatefulPartitionedCall/Postprocessor/BatchMultiClassNonMaxSuppression/PadOrClipBoxList/strided_slice_14/stack_2",
        "op": "Const",
        "attr": {
          "value": {
            "tensor": {
              "dtype": "DT_INT32",
              "tensorShape": {
                "dim": [
                  {
                    "size": "1"
                  }
                ]
              }
            }
          },
          "dtype": {
            "type": "DT_INT32"
          }
        }
      },
      {
        "name": "StatefulPartitionedCall/Postprocessor/BatchMultiClassNonMaxSuppression/PadOrClipBoxList/sub_14/y",
        "op": "Const",
        "attr": {
          "value": {
            "tensor": {
              "dtype": "DT_INT32",
              "tensorShape": {}
            }
          },
          "dtype": {
            "type": "DT_INT32"
          }
        }
      },
      {
        "name": "StatefulPartitionedCall/Postprocessor/BatchMultiClassNonMaxSuppression/PadOrClipBoxList/Greater_7/y",
        "op": "Const",
        "attr": {
          "dtype": {
            "type": "DT_INT32"
          },
          "value": {
            "tensor": {
              "dtype": "DT_INT32",
              "tensorShape": {}
            }
          }
        }
      },
      {
        "name": "StatefulPartitionedCall/Postprocessor/BatchMultiClassNonMaxSuppression/PadOrClipBoxList/Select_7/t",
        "op": "Const",
        "attr": {
          "dtype": {
            "type": "DT_INT32"
          },
          "value": {
            "tensor": {
              "dtype": "DT_INT32",
              "tensorShape": {}
            }
          }
        }
      },
      {
        "name": "StatefulPartitionedCall/Postprocessor/BatchMultiClassNonMaxSuppression/PadOrClipBoxList/Select_7/e",
        "op": "Const",
        "attr": {
          "value": {
            "tensor": {
              "dtype": "DT_INT32",
              "tensorShape": {}
            }
          },
          "dtype": {
            "type": "DT_INT32"
          }
        }
      },
      {
        "name": "StatefulPartitionedCall/Postprocessor/BatchMultiClassNonMaxSuppression/MultiClassNonMaxSuppression/Gather/GatherV2_4/axis",
        "op": "Const",
        "attr": {
          "value": {
            "tensor": {
              "dtype": "DT_INT32",
              "tensorShape": {}
            }
          },
          "dtype": {
            "type": "DT_INT32"
          }
        }
      },
      {
        "name": "StatefulPartitionedCall/Postprocessor/BatchMultiClassNonMaxSuppression/MultiClassNonMaxSuppression/Gather_1/GatherV2_4/axis",
        "op": "Const",
        "attr": {
          "dtype": {
            "type": "DT_INT32"
          },
          "value": {
            "tensor": {
              "dtype": "DT_INT32",
              "tensorShape": {}
            }
          }
        }
      },
      {
        "name": "StatefulPartitionedCall/Postprocessor/BatchMultiClassNonMaxSuppression/MultiClassNonMaxSuppression/Gather_2/GatherV2_4/axis",
        "op": "Const",
        "attr": {
          "dtype": {
            "type": "DT_INT32"
          },
          "value": {
            "tensor": {
              "dtype": "DT_INT32",
              "tensorShape": {}
            }
          }
        }
      },
      {
        "name": "StatefulPartitionedCall/Postprocessor/BatchMultiClassNonMaxSuppression/MultiClassNonMaxSuppression/Gather_3/GatherV2_4/axis",
        "op": "Const",
        "attr": {
          "dtype": {
            "type": "DT_INT32"
          },
          "value": {
            "tensor": {
              "dtype": "DT_INT32",
              "tensorShape": {}
            }
          }
        }
      },
      {
        "name": "StatefulPartitionedCall/Postprocessor/BatchMultiClassNonMaxSuppression/MultiClassNonMaxSuppression/Concatenate/concat_4/axis",
        "op": "Const",
        "attr": {
          "dtype": {
            "type": "DT_INT32"
          },
          "value": {
            "tensor": {
              "dtype": "DT_INT32",
              "tensorShape": {}
            }
          }
        }
      },
      {
        "name": "StatefulPartitionedCall/Postprocessor/BatchMultiClassNonMaxSuppression/MultiClassNonMaxSuppression/SortByField/Gather/GatherV2_4/axis",
        "op": "Const",
        "attr": {
          "value": {
            "tensor": {
              "dtype": "DT_INT32",
              "tensorShape": {}
            }
          },
          "dtype": {
            "type": "DT_INT32"
          }
        }
      },
      {
        "name": "StatefulPartitionedCall/Postprocessor/BatchMultiClassNonMaxSuppression/MultiClassNonMaxSuppression/ClipToWindow/Gather/GatherV2_4/axis",
        "op": "Const",
        "attr": {
          "value": {
            "tensor": {
              "dtype": "DT_INT32",
              "tensorShape": {}
            }
          },
          "dtype": {
            "type": "DT_INT32"
          }
        }
      },
      {
        "name": "StatefulPartitionedCall/Postprocessor/BatchMultiClassNonMaxSuppression/MultiClassNonMaxSuppression/SortByField_1/Gather/GatherV2_4/axis",
        "op": "Const",
        "attr": {
          "dtype": {
            "type": "DT_INT32"
          },
          "value": {
            "tensor": {
              "dtype": "DT_INT32",
              "tensorShape": {}
            }
          }
        }
      },
      {
        "name": "StatefulPartitionedCall/Postprocessor/BatchMultiClassNonMaxSuppression/MultiClassNonMaxSuppression/Gather_4/GatherV2_4/axis",
        "op": "Const",
        "attr": {
          "dtype": {
            "type": "DT_INT32"
          },
          "value": {
            "tensor": {
              "dtype": "DT_INT32",
              "tensorShape": {}
            }
          }
        }
      },
      {
        "name": "StatefulPartitionedCall/Postprocessor/BatchMultiClassNonMaxSuppression/MultiClassNonMaxSuppression/Gather_5/GatherV2_4/axis",
        "op": "Const",
        "attr": {
          "dtype": {
            "type": "DT_INT32"
          },
          "value": {
            "tensor": {
              "dtype": "DT_INT32",
              "tensorShape": {}
            }
          }
        }
      },
      {
        "name": "StatefulPartitionedCall/Postprocessor/BatchMultiClassNonMaxSuppression/PadOrClipBoxList/strided_slice_15/stack",
        "op": "Const",
        "attr": {
          "dtype": {
            "type": "DT_INT32"
          },
          "value": {
            "tensor": {
              "dtype": "DT_INT32",
              "tensorShape": {
                "dim": [
                  {
                    "size": "1"
                  }
                ]
              }
            }
          }
        }
      },
      {
        "name": "StatefulPartitionedCall/Postprocessor/BatchMultiClassNonMaxSuppression/PadOrClipBoxList/strided_slice_15/stack_1",
        "op": "Const",
        "attr": {
          "dtype": {
            "type": "DT_INT32"
          },
          "value": {
            "tensor": {
              "dtype": "DT_INT32",
              "tensorShape": {
                "dim": [
                  {
                    "size": "1"
                  }
                ]
              }
            }
          }
        }
      },
      {
        "name": "StatefulPartitionedCall/Postprocessor/BatchMultiClassNonMaxSuppression/PadOrClipBoxList/strided_slice_15/stack_2",
        "op": "Const",
        "attr": {
          "dtype": {
            "type": "DT_INT32"
          },
          "value": {
            "tensor": {
              "dtype": "DT_INT32",
              "tensorShape": {
                "dim": [
                  {
                    "size": "1"
                  }
                ]
              }
            }
          }
        }
      },
      {
        "name": "StatefulPartitionedCall/Postprocessor/BatchMultiClassNonMaxSuppression/PadOrClipBoxList/sub_15/y",
        "op": "Const",
        "attr": {
          "value": {
            "tensor": {
              "dtype": "DT_INT32",
              "tensorShape": {}
            }
          },
          "dtype": {
            "type": "DT_INT32"
          }
        }
      },
      {
        "name": "StatefulPartitionedCall/Postprocessor/BatchMultiClassNonMaxSuppression/PadOrClipBoxList/Greater_8/y",
        "op": "Const",
        "attr": {
          "dtype": {
            "type": "DT_INT32"
          },
          "value": {
            "tensor": {
              "dtype": "DT_INT32",
              "tensorShape": {}
            }
          }
        }
      },
      {
        "name": "StatefulPartitionedCall/Postprocessor/BatchMultiClassNonMaxSuppression/PadOrClipBoxList/Select_8/t",
        "op": "Const",
        "attr": {
          "value": {
            "tensor": {
              "dtype": "DT_INT32",
              "tensorShape": {}
            }
          },
          "dtype": {
            "type": "DT_INT32"
          }
        }
      },
      {
        "name": "StatefulPartitionedCall/Postprocessor/BatchMultiClassNonMaxSuppression/PadOrClipBoxList/Select_8/e",
        "op": "Const",
        "attr": {
          "dtype": {
            "type": "DT_INT32"
          },
          "value": {
            "tensor": {
              "dtype": "DT_INT32",
              "tensorShape": {}
            }
          }
        }
      },
      {
        "name": "StatefulPartitionedCall/Postprocessor/BatchMultiClassNonMaxSuppression/PadOrClipBoxList/strided_slice_17/stack",
        "op": "Const",
        "attr": {
          "value": {
            "tensor": {
              "dtype": "DT_INT32",
              "tensorShape": {
                "dim": [
                  {
                    "size": "1"
                  }
                ]
              }
            }
          },
          "dtype": {
            "type": "DT_INT32"
          }
        }
      },
      {
        "name": "StatefulPartitionedCall/Postprocessor/BatchMultiClassNonMaxSuppression/PadOrClipBoxList/strided_slice_17/stack_1",
        "op": "Const",
        "attr": {
          "value": {
            "tensor": {
              "dtype": "DT_INT32",
              "tensorShape": {
                "dim": [
                  {
                    "size": "1"
                  }
                ]
              }
            }
          },
          "dtype": {
            "type": "DT_INT32"
          }
        }
      },
      {
        "name": "StatefulPartitionedCall/Postprocessor/BatchMultiClassNonMaxSuppression/PadOrClipBoxList/strided_slice_17/stack_2",
        "op": "Const",
        "attr": {
          "dtype": {
            "type": "DT_INT32"
          },
          "value": {
            "tensor": {
              "dtype": "DT_INT32",
              "tensorShape": {
                "dim": [
                  {
                    "size": "1"
                  }
                ]
              }
            }
          }
        }
      },
      {
        "name": "StatefulPartitionedCall/Postprocessor/BatchMultiClassNonMaxSuppression/PadOrClipBoxList/zeros_3",
        "op": "Const",
        "attr": {
          "value": {
            "tensor": {
              "dtype": "DT_INT32",
              "tensorShape": {
                "dim": [
                  {
                    "size": "1"
                  }
                ]
              }
            }
          },
          "dtype": {
            "type": "DT_INT32"
          }
        }
      },
      {
        "name": "StatefulPartitionedCall/Postprocessor/BatchMultiClassNonMaxSuppression/PadOrClipBoxList/sub_5/x",
        "op": "Const",
        "attr": {
          "dtype": {
            "type": "DT_INT32"
          },
          "value": {
            "tensor": {
              "dtype": "DT_INT32",
              "tensorShape": {}
            }
          }
        }
      },
      {
        "name": "StatefulPartitionedCall/Postprocessor/BatchMultiClassNonMaxSuppression/PadOrClipBoxList/zeros_2",
        "op": "Const",
        "attr": {
          "value": {
            "tensor": {
              "dtype": "DT_INT32",
              "tensorShape": {
                "dim": [
                  {
                    "size": "1"
                  }
                ]
              }
            }
          },
          "dtype": {
            "type": "DT_INT32"
          }
        }
      },
      {
        "name": "StatefulPartitionedCall/Postprocessor/BatchMultiClassNonMaxSuppression/MultiClassNonMaxSuppression/SortByField_1/Gather/GatherV2_1/axis",
        "op": "Const",
        "attr": {
          "dtype": {
            "type": "DT_INT32"
          },
          "value": {
            "tensor": {
              "dtype": "DT_INT32",
              "tensorShape": {}
            }
          }
        }
      },
      {
        "name": "StatefulPartitionedCall/Postprocessor/BatchMultiClassNonMaxSuppression/MultiClassNonMaxSuppression/range_4/start",
        "op": "Const",
        "attr": {
          "value": {
            "tensor": {
              "dtype": "DT_INT32",
              "tensorShape": {}
            }
          },
          "dtype": {
            "type": "DT_INT32"
          }
        }
      },
      {
        "name": "StatefulPartitionedCall/Postprocessor/BatchMultiClassNonMaxSuppression/MultiClassNonMaxSuppression/range_4/delta",
        "op": "Const",
        "attr": {
          "dtype": {
            "type": "DT_INT32"
          },
          "value": {
            "tensor": {
              "dtype": "DT_INT32",
              "tensorShape": {}
            }
          }
        }
      },
      {
        "name": "StatefulPartitionedCall/Postprocessor/BatchMultiClassNonMaxSuppression/MultiClassNonMaxSuppression/Gather_4/GatherV2_1/axis",
        "op": "Const",
        "attr": {
          "dtype": {
            "type": "DT_INT32"
          },
          "value": {
            "tensor": {
              "dtype": "DT_INT32",
              "tensorShape": {}
            }
          }
        }
      },
      {
        "name": "StatefulPartitionedCall/Postprocessor/BatchMultiClassNonMaxSuppression/MultiClassNonMaxSuppression/range_5/start",
        "op": "Const",
        "attr": {
          "value": {
            "tensor": {
              "dtype": "DT_INT32",
              "tensorShape": {}
            }
          },
          "dtype": {
            "type": "DT_INT32"
          }
        }
      },
      {
        "name": "StatefulPartitionedCall/Postprocessor/BatchMultiClassNonMaxSuppression/MultiClassNonMaxSuppression/range_5/delta",
        "op": "Const",
        "attr": {
          "value": {
            "tensor": {
              "dtype": "DT_INT32",
              "tensorShape": {}
            }
          },
          "dtype": {
            "type": "DT_INT32"
          }
        }
      },
      {
        "name": "StatefulPartitionedCall/Postprocessor/BatchMultiClassNonMaxSuppression/MultiClassNonMaxSuppression/Gather_5/GatherV2_1/axis",
        "op": "Const",
        "attr": {
          "dtype": {
            "type": "DT_INT32"
          },
          "value": {
            "tensor": {
              "dtype": "DT_INT32",
              "tensorShape": {}
            }
          }
        }
      },
      {
        "name": "StatefulPartitionedCall/Postprocessor/BatchMultiClassNonMaxSuppression/PadOrClipBoxList/strided_slice_4/stack",
        "op": "Const",
        "attr": {
          "value": {
            "tensor": {
              "dtype": "DT_INT32",
              "tensorShape": {
                "dim": [
                  {
                    "size": "1"
                  }
                ]
              }
            }
          },
          "dtype": {
            "type": "DT_INT32"
          }
        }
      },
      {
        "name": "StatefulPartitionedCall/Postprocessor/BatchMultiClassNonMaxSuppression/PadOrClipBoxList/strided_slice_4/stack_1",
        "op": "Const",
        "attr": {
          "dtype": {
            "type": "DT_INT32"
          },
          "value": {
            "tensor": {
              "dtype": "DT_INT32",
              "tensorShape": {
                "dim": [
                  {
                    "size": "1"
                  }
                ]
              }
            }
          }
        }
      },
      {
        "name": "StatefulPartitionedCall/Postprocessor/BatchMultiClassNonMaxSuppression/PadOrClipBoxList/strided_slice_4/stack_2",
        "op": "Const",
        "attr": {
          "value": {
            "tensor": {
              "dtype": "DT_INT32",
              "tensorShape": {
                "dim": [
                  {
                    "size": "1"
                  }
                ]
              }
            }
          },
          "dtype": {
            "type": "DT_INT32"
          }
        }
      },
      {
        "name": "StatefulPartitionedCall/Postprocessor/BatchMultiClassNonMaxSuppression/PadOrClipBoxList/sub_4/y",
        "op": "Const",
        "attr": {
          "dtype": {
            "type": "DT_INT32"
          },
          "value": {
            "tensor": {
              "dtype": "DT_INT32",
              "tensorShape": {}
            }
          }
        }
      },
      {
        "name": "StatefulPartitionedCall/Postprocessor/BatchMultiClassNonMaxSuppression/PadOrClipBoxList/Greater_2/y",
        "op": "Const",
        "attr": {
          "dtype": {
            "type": "DT_INT32"
          },
          "value": {
            "tensor": {
              "dtype": "DT_INT32",
              "tensorShape": {}
            }
          }
        }
      },
      {
        "name": "StatefulPartitionedCall/Postprocessor/BatchMultiClassNonMaxSuppression/PadOrClipBoxList/Select_2/t",
        "op": "Const",
        "attr": {
          "value": {
            "tensor": {
              "dtype": "DT_INT32",
              "tensorShape": {}
            }
          },
          "dtype": {
            "type": "DT_INT32"
          }
        }
      },
      {
        "name": "StatefulPartitionedCall/Postprocessor/BatchMultiClassNonMaxSuppression/PadOrClipBoxList/Select_2/e",
        "op": "Const",
        "attr": {
          "dtype": {
            "type": "DT_INT32"
          },
          "value": {
            "tensor": {
              "dtype": "DT_INT32",
              "tensorShape": {}
            }
          }
        }
      },
      {
        "name": "StatefulPartitionedCall/Postprocessor/BatchMultiClassNonMaxSuppression/PadOrClipBoxList/strided_slice_5/stack",
        "op": "Const",
        "attr": {
          "dtype": {
            "type": "DT_INT32"
          },
          "value": {
            "tensor": {
              "dtype": "DT_INT32",
              "tensorShape": {
                "dim": [
                  {
                    "size": "1"
                  }
                ]
              }
            }
          }
        }
      },
      {
        "name": "StatefulPartitionedCall/Postprocessor/BatchMultiClassNonMaxSuppression/PadOrClipBoxList/strided_slice_5/stack_1",
        "op": "Const",
        "attr": {
          "value": {
            "tensor": {
              "dtype": "DT_INT32",
              "tensorShape": {
                "dim": [
                  {
                    "size": "1"
                  }
                ]
              }
            }
          },
          "dtype": {
            "type": "DT_INT32"
          }
        }
      },
      {
        "name": "StatefulPartitionedCall/Postprocessor/BatchMultiClassNonMaxSuppression/PadOrClipBoxList/strided_slice_5/stack_2",
        "op": "Const",
        "attr": {
          "value": {
            "tensor": {
              "dtype": "DT_INT32",
              "tensorShape": {
                "dim": [
                  {
                    "size": "1"
                  }
                ]
              }
            }
          },
          "dtype": {
            "type": "DT_INT32"
          }
        }
      },
      {
        "name": "StatefulPartitionedCall/Postprocessor/BatchMultiClassNonMaxSuppression/MultiClassNonMaxSuppression/GreaterEqual/y",
        "op": "Const",
        "attr": {
          "value": {
            "tensor": {
              "dtype": "DT_FLOAT",
              "tensorShape": {}
            }
          },
          "dtype": {
            "type": "DT_FLOAT"
          }
        }
      },
      {
        "name": "StatefulPartitionedCall/Postprocessor/BatchMultiClassNonMaxSuppression/MultiClassNonMaxSuppression/Const_1",
        "op": "Const",
        "attr": {
          "value": {
            "tensor": {
              "dtype": "DT_INT32",
              "tensorShape": {
                "dim": [
                  {
                    "size": "1"
                  }
                ]
              }
            }
          },
          "dtype": {
            "type": "DT_INT32"
          }
        }
      },
      {
        "name": "StatefulPartitionedCall/Postprocessor/BatchMultiClassNonMaxSuppression/MultiClassNonMaxSuppression/Minimum_4/x",
        "op": "Const",
        "attr": {
          "dtype": {
            "type": "DT_INT32"
          },
          "value": {
            "tensor": {
              "dtype": "DT_INT32",
              "tensorShape": {}
            }
          }
        }
      },
      {
        "name": "StatefulPartitionedCall/Postprocessor/BatchMultiClassNonMaxSuppression/MultiClassNonMaxSuppression/ChangeCoordinateFrame/Scale/split/split_dim",
        "op": "Const",
        "attr": {
          "value": {
            "tensor": {
              "dtype": "DT_INT32",
              "tensorShape": {}
            }
          },
          "dtype": {
            "type": "DT_INT32"
          }
        }
      },
      {
        "name": "StatefulPartitionedCall/Postprocessor/BatchMultiClassNonMaxSuppression/MultiClassNonMaxSuppression/SortByField_1/Gather/GatherV2_6/axis",
        "op": "Const",
        "attr": {
          "dtype": {
            "type": "DT_INT32"
          },
          "value": {
            "tensor": {
              "dtype": "DT_INT32",
              "tensorShape": {}
            }
          }
        }
      },
      {
        "name": "StatefulPartitionedCall/Postprocessor/BatchMultiClassNonMaxSuppression/MultiClassNonMaxSuppression/ChangeCoordinateFrame/Scale/concat/axis",
        "op": "Const",
        "attr": {
          "value": {
            "tensor": {
              "dtype": "DT_INT32",
              "tensorShape": {}
            }
          },
          "dtype": {
            "type": "DT_INT32"
          }
        }
      },
      {
        "name": "StatefulPartitionedCall/Postprocessor/BatchMultiClassNonMaxSuppression/MultiClassNonMaxSuppression/strided_slice_10/stack",
        "op": "Const",
        "attr": {
          "dtype": {
            "type": "DT_INT32"
          },
          "value": {
            "tensor": {
              "dtype": "DT_INT32",
              "tensorShape": {
                "dim": [
                  {
                    "size": "1"
                  }
                ]
              }
            }
          }
        }
      },
      {
        "name": "StatefulPartitionedCall/Postprocessor/BatchMultiClassNonMaxSuppression/MultiClassNonMaxSuppression/strided_slice_10/stack_1",
        "op": "Const",
        "attr": {
          "value": {
            "tensor": {
              "dtype": "DT_INT32",
              "tensorShape": {
                "dim": [
                  {
                    "size": "1"
                  }
                ]
              }
            }
          },
          "dtype": {
            "type": "DT_INT32"
          }
        }
      },
      {
        "name": "StatefulPartitionedCall/Postprocessor/BatchMultiClassNonMaxSuppression/MultiClassNonMaxSuppression/strided_slice_10/stack_2",
        "op": "Const",
        "attr": {
          "dtype": {
            "type": "DT_INT32"
          },
          "value": {
            "tensor": {
              "dtype": "DT_INT32",
              "tensorShape": {
                "dim": [
                  {
                    "size": "1"
                  }
                ]
              }
            }
          }
        }
      },
      {
        "name": "StatefulPartitionedCall/Postprocessor/BatchMultiClassNonMaxSuppression/MultiClassNonMaxSuppression/SortByField_1/strided_slice/stack",
        "op": "Const",
        "attr": {
          "value": {
            "tensor": {
              "dtype": "DT_INT32",
              "tensorShape": {
                "dim": [
                  {
                    "size": "1"
                  }
                ]
              }
            }
          },
          "dtype": {
            "type": "DT_INT32"
          }
        }
      },
      {
        "name": "StatefulPartitionedCall/Postprocessor/BatchMultiClassNonMaxSuppression/MultiClassNonMaxSuppression/SortByField_1/strided_slice/stack_1",
        "op": "Const",
        "attr": {
          "dtype": {
            "type": "DT_INT32"
          },
          "value": {
            "tensor": {
              "dtype": "DT_INT32",
              "tensorShape": {
                "dim": [
                  {
                    "size": "1"
                  }
                ]
              }
            }
          }
        }
      },
      {
        "name": "StatefulPartitionedCall/Postprocessor/BatchMultiClassNonMaxSuppression/MultiClassNonMaxSuppression/SortByField_1/strided_slice/stack_2",
        "op": "Const",
        "attr": {
          "dtype": {
            "type": "DT_INT32"
          },
          "value": {
            "tensor": {
              "dtype": "DT_INT32",
              "tensorShape": {
                "dim": [
                  {
                    "size": "1"
                  }
                ]
              }
            }
          }
        }
      },
      {
        "name": "StatefulPartitionedCall/Postprocessor/BatchMultiClassNonMaxSuppression/MultiClassNonMaxSuppression/Area/split/split_dim",
        "op": "Const",
        "attr": {
          "dtype": {
            "type": "DT_INT32"
          },
          "value": {
            "tensor": {
              "dtype": "DT_INT32",
              "tensorShape": {}
            }
          }
        }
      },
      {
        "name": "StatefulPartitionedCall/Postprocessor/BatchMultiClassNonMaxSuppression/MultiClassNonMaxSuppression/SortByField/Gather/GatherV2_1/axis",
        "op": "Const",
        "attr": {
          "dtype": {
            "type": "DT_INT32"
          },
          "value": {
            "tensor": {
              "dtype": "DT_INT32",
              "tensorShape": {}
            }
          }
        }
      },
      {
        "name": "StatefulPartitionedCall/Postprocessor/BatchMultiClassNonMaxSuppression/MultiClassNonMaxSuppression/ClipToWindow/Gather/GatherV2_1/axis",
        "op": "Const",
        "attr": {
          "dtype": {
            "type": "DT_INT32"
          },
          "value": {
            "tensor": {
              "dtype": "DT_INT32",
              "tensorShape": {}
            }
          }
        }
      },
      {
        "name": "StatefulPartitionedCall/Postprocessor/BatchMultiClassNonMaxSuppression/MultiClassNonMaxSuppression/mul_4/x",
        "op": "Const",
        "attr": {
          "dtype": {
            "type": "DT_FLOAT"
          },
          "value": {
            "tensor": {
              "dtype": "DT_FLOAT",
              "tensorShape": {}
            }
          }
        }
      },
      {
        "name": "StatefulPartitionedCall/Postprocessor/BatchMultiClassNonMaxSuppression/MultiClassNonMaxSuppression/ClipToWindow/Area/split/split_dim",
        "op": "Const",
        "attr": {
          "value": {
            "tensor": {
              "dtype": "DT_INT32",
              "tensorShape": {}
            }
          },
          "dtype": {
            "type": "DT_INT32"
          }
        }
      },
      {
        "name": "StatefulPartitionedCall/Postprocessor/BatchMultiClassNonMaxSuppression/MultiClassNonMaxSuppression/ClipToWindow/strided_slice_2",
        "op": "Const",
        "attr": {
          "value": {
            "tensor": {
              "dtype": "DT_FLOAT",
              "tensorShape": {}
            }
          },
          "dtype": {
            "type": "DT_FLOAT"
          }
        }
      },
      {
        "name": "StatefulPartitionedCall/Postprocessor/BatchMultiClassNonMaxSuppression/MultiClassNonMaxSuppression/ClipToWindow/strided_slice",
        "op": "Const",
        "attr": {
          "dtype": {
            "type": "DT_FLOAT"
          },
          "value": {
            "tensor": {
              "dtype": "DT_FLOAT",
              "tensorShape": {}
            }
          }
        }
      },
      {
        "name": "StatefulPartitionedCall/Postprocessor/BatchMultiClassNonMaxSuppression/MultiClassNonMaxSuppression/ClipToWindow/split/split_dim",
        "op": "Const",
        "attr": {
          "dtype": {
            "type": "DT_INT32"
          },
          "value": {
            "tensor": {
              "dtype": "DT_INT32",
              "tensorShape": {}
            }
          }
        }
      },
      {
        "name": "StatefulPartitionedCall/Postprocessor/BatchMultiClassNonMaxSuppression/MultiClassNonMaxSuppression/range",
        "op": "Const",
        "attr": {
          "value": {
            "tensor": {
              "dtype": "DT_INT32",
              "tensorShape": {
                "dim": [
                  {
                    "size": "100"
                  }
                ]
              }
            }
          },
          "dtype": {
            "type": "DT_INT32"
          }
        }
      },
      {
        "name": "StatefulPartitionedCall/Postprocessor/BatchMultiClassNonMaxSuppression/MultiClassNonMaxSuppression/zeros_1/Reshape/shape",
        "op": "Const",
        "attr": {
          "dtype": {
            "type": "DT_INT32"
          },
          "value": {
            "tensor": {
              "dtype": "DT_INT32",
              "tensorShape": {
                "dim": [
                  {
                    "size": "1"
                  }
                ]
              }
            }
          }
        }
      },
      {
        "name": "StatefulPartitionedCall/Postprocessor/BatchMultiClassNonMaxSuppression/MultiClassNonMaxSuppression/zeros_1/Const",
        "op": "Const",
        "attr": {
          "value": {
            "tensor": {
              "dtype": "DT_FLOAT",
              "tensorShape": {}
            }
          },
          "dtype": {
            "type": "DT_FLOAT"
          }
        }
      },
      {
        "name": "StatefulPartitionedCall/Postprocessor/BatchMultiClassNonMaxSuppression/MultiClassNonMaxSuppression/concat_1/axis",
        "op": "Const",
        "attr": {
          "dtype": {
            "type": "DT_INT32"
          },
          "value": {
            "tensor": {
              "dtype": "DT_INT32",
              "tensorShape": {}
            }
          }
        }
      },
      {
        "name": "StatefulPartitionedCall/Postprocessor/BatchMultiClassNonMaxSuppression/MultiClassNonMaxSuppression/mul",
        "op": "Const",
        "attr": {
          "dtype": {
            "type": "DT_FLOAT"
          },
          "value": {
            "tensor": {
              "dtype": "DT_FLOAT",
              "tensorShape": {
                "dim": [
                  {
                    "size": "100"
                  }
                ]
              }
            }
          }
        }
      },
      {
        "name": "StatefulPartitionedCall/Postprocessor/BatchMultiClassNonMaxSuppression/MultiClassNonMaxSuppression/range_1",
        "op": "Const",
        "attr": {
          "dtype": {
            "type": "DT_INT32"
          },
          "value": {
            "tensor": {
              "dtype": "DT_INT32",
              "tensorShape": {
                "dim": [
                  {
                    "size": "100"
                  }
                ]
              }
            }
          }
        }
      },
      {
        "name": "StatefulPartitionedCall/Postprocessor/BatchMultiClassNonMaxSuppression/MultiClassNonMaxSuppression/zeros_3/Reshape/shape",
        "op": "Const",
        "attr": {
          "dtype": {
            "type": "DT_INT32"
          },
          "value": {
            "tensor": {
              "dtype": "DT_INT32",
              "tensorShape": {
                "dim": [
                  {
                    "size": "1"
                  }
                ]
              }
            }
          }
        }
      },
      {
        "name": "StatefulPartitionedCall/Postprocessor/BatchMultiClassNonMaxSuppression/MultiClassNonMaxSuppression/zeros_3/Const",
        "op": "Const",
        "attr": {
          "dtype": {
            "type": "DT_FLOAT"
          },
          "value": {
            "tensor": {
              "dtype": "DT_FLOAT",
              "tensorShape": {}
            }
          }
        }
      },
      {
        "name": "StatefulPartitionedCall/Postprocessor/BatchMultiClassNonMaxSuppression/MultiClassNonMaxSuppression/concat_3/axis",
        "op": "Const",
        "attr": {
          "value": {
            "tensor": {
              "dtype": "DT_INT32",
              "tensorShape": {}
            }
          },
          "dtype": {
            "type": "DT_INT32"
          }
        }
      },
      {
        "name": "StatefulPartitionedCall/Postprocessor/BatchMultiClassNonMaxSuppression/MultiClassNonMaxSuppression/mul_1",
        "op": "Const",
        "attr": {
          "dtype": {
            "type": "DT_FLOAT"
          },
          "value": {
            "tensor": {
              "dtype": "DT_FLOAT",
              "tensorShape": {
                "dim": [
                  {
                    "size": "100"
                  }
                ]
              }
            }
          }
        }
      },
      {
        "name": "StatefulPartitionedCall/Postprocessor/BatchMultiClassNonMaxSuppression/MultiClassNonMaxSuppression/range_2",
        "op": "Const",
        "attr": {
          "dtype": {
            "type": "DT_INT32"
          },
          "value": {
            "tensor": {
              "dtype": "DT_INT32",
              "tensorShape": {
                "dim": [
                  {
                    "size": "100"
                  }
                ]
              }
            }
          }
        }
      },
      {
        "name": "StatefulPartitionedCall/Postprocessor/BatchMultiClassNonMaxSuppression/MultiClassNonMaxSuppression/zeros_5/Reshape/shape",
        "op": "Const",
        "attr": {
          "value": {
            "tensor": {
              "dtype": "DT_INT32",
              "tensorShape": {
                "dim": [
                  {
                    "size": "1"
                  }
                ]
              }
            }
          },
          "dtype": {
            "type": "DT_INT32"
          }
        }
      },
      {
        "name": "StatefulPartitionedCall/Postprocessor/BatchMultiClassNonMaxSuppression/MultiClassNonMaxSuppression/zeros_5/Const",
        "op": "Const",
        "attr": {
          "value": {
            "tensor": {
              "dtype": "DT_FLOAT",
              "tensorShape": {}
            }
          },
          "dtype": {
            "type": "DT_FLOAT"
          }
        }
      },
      {
        "name": "StatefulPartitionedCall/Postprocessor/BatchMultiClassNonMaxSuppression/MultiClassNonMaxSuppression/concat_5/axis",
        "op": "Const",
        "attr": {
          "dtype": {
            "type": "DT_INT32"
          },
          "value": {
            "tensor": {
              "dtype": "DT_INT32",
              "tensorShape": {}
            }
          }
        }
      },
      {
        "name": "StatefulPartitionedCall/Postprocessor/BatchMultiClassNonMaxSuppression/MultiClassNonMaxSuppression/mul_2",
        "op": "Const",
        "attr": {
          "value": {
            "tensor": {
              "dtype": "DT_FLOAT",
              "tensorShape": {
                "dim": [
                  {
                    "size": "100"
                  }
                ]
              }
            }
          },
          "dtype": {
            "type": "DT_FLOAT"
          }
        }
      },
      {
        "name": "StatefulPartitionedCall/Postprocessor/BatchMultiClassNonMaxSuppression/MultiClassNonMaxSuppression/range_3",
        "op": "Const",
        "attr": {
          "value": {
            "tensor": {
              "dtype": "DT_INT32",
              "tensorShape": {
                "dim": [
                  {
                    "size": "100"
                  }
                ]
              }
            }
          },
          "dtype": {
            "type": "DT_INT32"
          }
        }
      },
      {
        "name": "StatefulPartitionedCall/Postprocessor/BatchMultiClassNonMaxSuppression/MultiClassNonMaxSuppression/zeros_7/Reshape/shape",
        "op": "Const",
        "attr": {
          "dtype": {
            "type": "DT_INT32"
          },
          "value": {
            "tensor": {
              "dtype": "DT_INT32",
              "tensorShape": {
                "dim": [
                  {
                    "size": "1"
                  }
                ]
              }
            }
          }
        }
      },
      {
        "name": "StatefulPartitionedCall/Postprocessor/BatchMultiClassNonMaxSuppression/MultiClassNonMaxSuppression/zeros_7/Const",
        "op": "Const",
        "attr": {
          "value": {
            "tensor": {
              "dtype": "DT_FLOAT",
              "tensorShape": {}
            }
          },
          "dtype": {
            "type": "DT_FLOAT"
          }
        }
      },
      {
        "name": "StatefulPartitionedCall/Postprocessor/BatchMultiClassNonMaxSuppression/MultiClassNonMaxSuppression/concat_7/axis",
        "op": "Const",
        "attr": {
          "dtype": {
            "type": "DT_INT32"
          },
          "value": {
            "tensor": {
              "dtype": "DT_INT32",
              "tensorShape": {}
            }
          }
        }
      },
      {
        "name": "StatefulPartitionedCall/Postprocessor/BatchMultiClassNonMaxSuppression/MultiClassNonMaxSuppression/mul_3",
        "op": "Const",
        "attr": {
          "value": {
            "tensor": {
              "dtype": "DT_FLOAT",
              "tensorShape": {
                "dim": [
                  {
                    "size": "100"
                  }
                ]
              }
            }
          },
          "dtype": {
            "type": "DT_FLOAT"
          }
        }
      },
      {
        "name": "StatefulPartitionedCall/Postprocessor/BatchMultiClassNonMaxSuppression/MultiClassNonMaxSuppression/Concatenate/concat_1/axis",
        "op": "Const",
        "attr": {
          "value": {
            "tensor": {
              "dtype": "DT_INT32",
              "tensorShape": {}
            }
          },
          "dtype": {
            "type": "DT_INT32"
          }
        }
      },
      {
        "name": "StatefulPartitionedCall/Postprocessor/BatchMultiClassNonMaxSuppression/MultiClassNonMaxSuppression/Slice/begin",
        "op": "Const",
        "attr": {
          "value": {
            "tensor": {
              "dtype": "DT_INT32",
              "tensorShape": {
                "dim": [
                  {
                    "size": "2"
                  }
                ]
              }
            }
          },
          "dtype": {
            "type": "DT_INT32"
          }
        }
      },
      {
        "name": "StatefulPartitionedCall/Postprocessor/BatchMultiClassNonMaxSuppression/MultiClassNonMaxSuppression/stack",
        "op": "Const",
        "attr": {
          "value": {
            "tensor": {
              "dtype": "DT_INT32",
              "tensorShape": {
                "dim": [
                  {
                    "size": "2"
                  }
                ]
              }
            }
          },
          "dtype": {
            "type": "DT_INT32"
          }
        }
      },
      {
        "name": "StatefulPartitionedCall/Postprocessor/BatchMultiClassNonMaxSuppression/MultiClassNonMaxSuppression/Reshape/shape",
        "op": "Const",
        "attr": {
          "value": {
            "tensor": {
              "dtype": "DT_INT32",
              "tensorShape": {
                "dim": [
                  {
                    "size": "1"
                  }
                ]
              }
            }
          },
          "dtype": {
            "type": "DT_INT32"
          }
        }
      },
      {
        "name": "StatefulPartitionedCall/Postprocessor/BatchMultiClassNonMaxSuppression/MultiClassNonMaxSuppression/Minimum",
        "op": "Const",
        "attr": {
          "dtype": {
            "type": "DT_INT32"
          },
          "value": {
            "tensor": {
              "dtype": "DT_INT32",
              "tensorShape": {}
            }
          }
        }
      },
      {
        "name": "StatefulPartitionedCall/Postprocessor/BatchMultiClassNonMaxSuppression/MultiClassNonMaxSuppression/non_max_suppression_with_scores/iou_threshold",
        "op": "Const",
        "attr": {
          "dtype": {
            "type": "DT_FLOAT"
          },
          "value": {
            "tensor": {
              "dtype": "DT_FLOAT",
              "tensorShape": {}
            }
          }
        }
      },
      {
        "name": "StatefulPartitionedCall/Postprocessor/BatchMultiClassNonMaxSuppression/MultiClassNonMaxSuppression/non_max_suppression_with_scores/score_threshold",
        "op": "Const",
        "attr": {
          "dtype": {
            "type": "DT_FLOAT"
          },
          "value": {
            "tensor": {
              "dtype": "DT_FLOAT",
              "tensorShape": {}
            }
          }
        }
      },
      {
        "name": "StatefulPartitionedCall/Postprocessor/BatchMultiClassNonMaxSuppression/MultiClassNonMaxSuppression/non_max_suppression_with_scores/soft_nms_sigma",
        "op": "Const",
        "attr": {
          "value": {
            "tensor": {
              "dtype": "DT_FLOAT",
              "tensorShape": {}
            }
          },
          "dtype": {
            "type": "DT_FLOAT"
          }
        }
      },
      {
        "name": "StatefulPartitionedCall/Postprocessor/BatchMultiClassNonMaxSuppression/MultiClassNonMaxSuppression/strided_slice_2/stack",
        "op": "Const",
        "attr": {
          "value": {
            "tensor": {
              "dtype": "DT_INT32",
              "tensorShape": {
                "dim": [
                  {
                    "size": "1"
                  }
                ]
              }
            }
          },
          "dtype": {
            "type": "DT_INT32"
          }
        }
      },
      {
        "name": "StatefulPartitionedCall/Postprocessor/BatchMultiClassNonMaxSuppression/MultiClassNonMaxSuppression/strided_slice_2/stack_1",
        "op": "Const",
        "attr": {
          "value": {
            "tensor": {
              "dtype": "DT_INT32",
              "tensorShape": {
                "dim": [
                  {
                    "size": "1"
                  }
                ]
              }
            }
          },
          "dtype": {
            "type": "DT_INT32"
          }
        }
      },
      {
        "name": "StatefulPartitionedCall/Postprocessor/BatchMultiClassNonMaxSuppression/MultiClassNonMaxSuppression/strided_slice_2/stack_2",
        "op": "Const",
        "attr": {
          "dtype": {
            "type": "DT_INT32"
          },
          "value": {
            "tensor": {
              "dtype": "DT_INT32",
              "tensorShape": {
                "dim": [
                  {
                    "size": "1"
                  }
                ]
              }
            }
          }
        }
      },
      {
        "name": "StatefulPartitionedCall/Postprocessor/BatchMultiClassNonMaxSuppression/MultiClassNonMaxSuppression/zeros/Reshape/shape",
        "op": "Const",
        "attr": {
          "dtype": {
            "type": "DT_INT32"
          },
          "value": {
            "tensor": {
              "dtype": "DT_INT32",
              "tensorShape": {
                "dim": [
                  {
                    "size": "1"
                  }
                ]
              }
            }
          }
        }
      },
      {
        "name": "StatefulPartitionedCall/Postprocessor/BatchMultiClassNonMaxSuppression/MultiClassNonMaxSuppression/zeros/Const",
        "op": "Const",
        "attr": {
          "value": {
            "tensor": {
              "dtype": "DT_INT32",
              "tensorShape": {}
            }
          },
          "dtype": {
            "type": "DT_INT32"
          }
        }
      },
      {
        "name": "StatefulPartitionedCall/Postprocessor/BatchMultiClassNonMaxSuppression/MultiClassNonMaxSuppression/concat/axis",
        "op": "Const",
        "attr": {
          "dtype": {
            "type": "DT_INT32"
          },
          "value": {
            "tensor": {
              "dtype": "DT_INT32",
              "tensorShape": {}
            }
          }
        }
      },
      {
        "name": "StatefulPartitionedCall/Postprocessor/BatchMultiClassNonMaxSuppression/MultiClassNonMaxSuppression/Gather/GatherV2_5/axis",
        "op": "Const",
        "attr": {
          "dtype": {
            "type": "DT_INT32"
          },
          "value": {
            "tensor": {
              "dtype": "DT_INT32",
              "tensorShape": {}
            }
          }
        }
      },
      {
        "name": "StatefulPartitionedCall/Postprocessor/BatchMultiClassNonMaxSuppression/MultiClassNonMaxSuppression/Slice_1/begin",
        "op": "Const",
        "attr": {
          "value": {
            "tensor": {
              "dtype": "DT_INT32",
              "tensorShape": {
                "dim": [
                  {
                    "size": "2"
                  }
                ]
              }
            }
          },
          "dtype": {
            "type": "DT_INT32"
          }
        }
      },
      {
        "name": "StatefulPartitionedCall/Postprocessor/BatchMultiClassNonMaxSuppression/MultiClassNonMaxSuppression/stack_1",
        "op": "Const",
        "attr": {
          "value": {
            "tensor": {
              "dtype": "DT_INT32",
              "tensorShape": {
                "dim": [
                  {
                    "size": "2"
                  }
                ]
              }
            }
          },
          "dtype": {
            "type": "DT_INT32"
          }
        }
      },
      {
        "name": "StatefulPartitionedCall/Postprocessor/BatchMultiClassNonMaxSuppression/MultiClassNonMaxSuppression/Reshape_1/shape",
        "op": "Const",
        "attr": {
          "dtype": {
            "type": "DT_INT32"
          },
          "value": {
            "tensor": {
              "dtype": "DT_INT32",
              "tensorShape": {
                "dim": [
                  {
                    "size": "1"
                  }
                ]
              }
            }
          }
        }
      },
      {
        "name": "StatefulPartitionedCall/Postprocessor/BatchMultiClassNonMaxSuppression/MultiClassNonMaxSuppression/Minimum_1",
        "op": "Const",
        "attr": {
          "value": {
            "tensor": {
              "dtype": "DT_INT32",
              "tensorShape": {}
            }
          },
          "dtype": {
            "type": "DT_INT32"
          }
        }
      },
      {
        "name": "StatefulPartitionedCall/Postprocessor/BatchMultiClassNonMaxSuppression/MultiClassNonMaxSuppression/non_max_suppression_with_scores_1/iou_threshold",
        "op": "Const",
        "attr": {
          "value": {
            "tensor": {
              "dtype": "DT_FLOAT",
              "tensorShape": {}
            }
          },
          "dtype": {
            "type": "DT_FLOAT"
          }
        }
      },
      {
        "name": "StatefulPartitionedCall/Postprocessor/BatchMultiClassNonMaxSuppression/MultiClassNonMaxSuppression/non_max_suppression_with_scores_1/score_threshold",
        "op": "Const",
        "attr": {
          "value": {
            "tensor": {
              "dtype": "DT_FLOAT",
              "tensorShape": {}
            }
          },
          "dtype": {
            "type": "DT_FLOAT"
          }
        }
      },
      {
        "name": "StatefulPartitionedCall/Postprocessor/BatchMultiClassNonMaxSuppression/MultiClassNonMaxSuppression/non_max_suppression_with_scores_1/soft_nms_sigma",
        "op": "Const",
        "attr": {
          "value": {
            "tensor": {
              "dtype": "DT_FLOAT",
              "tensorShape": {}
            }
          },
          "dtype": {
            "type": "DT_FLOAT"
          }
        }
      },
      {
        "name": "StatefulPartitionedCall/Postprocessor/BatchMultiClassNonMaxSuppression/MultiClassNonMaxSuppression/strided_slice_4/stack",
        "op": "Const",
        "attr": {
          "dtype": {
            "type": "DT_INT32"
          },
          "value": {
            "tensor": {
              "dtype": "DT_INT32",
              "tensorShape": {
                "dim": [
                  {
                    "size": "1"
                  }
                ]
              }
            }
          }
        }
      },
      {
        "name": "StatefulPartitionedCall/Postprocessor/BatchMultiClassNonMaxSuppression/MultiClassNonMaxSuppression/strided_slice_4/stack_1",
        "op": "Const",
        "attr": {
          "dtype": {
            "type": "DT_INT32"
          },
          "value": {
            "tensor": {
              "dtype": "DT_INT32",
              "tensorShape": {
                "dim": [
                  {
                    "size": "1"
                  }
                ]
              }
            }
          }
        }
      },
      {
        "name": "StatefulPartitionedCall/Postprocessor/BatchMultiClassNonMaxSuppression/MultiClassNonMaxSuppression/strided_slice_4/stack_2",
        "op": "Const",
        "attr": {
          "dtype": {
            "type": "DT_INT32"
          },
          "value": {
            "tensor": {
              "dtype": "DT_INT32",
              "tensorShape": {
                "dim": [
                  {
                    "size": "1"
                  }
                ]
              }
            }
          }
        }
      },
      {
        "name": "StatefulPartitionedCall/Postprocessor/BatchMultiClassNonMaxSuppression/MultiClassNonMaxSuppression/zeros_2/Reshape/shape",
        "op": "Const",
        "attr": {
          "dtype": {
            "type": "DT_INT32"
          },
          "value": {
            "tensor": {
              "dtype": "DT_INT32",
              "tensorShape": {
                "dim": [
                  {
                    "size": "1"
                  }
                ]
              }
            }
          }
        }
      },
      {
        "name": "StatefulPartitionedCall/Postprocessor/BatchMultiClassNonMaxSuppression/MultiClassNonMaxSuppression/zeros_2/Const",
        "op": "Const",
        "attr": {
          "value": {
            "tensor": {
              "dtype": "DT_INT32",
              "tensorShape": {}
            }
          },
          "dtype": {
            "type": "DT_INT32"
          }
        }
      },
      {
        "name": "StatefulPartitionedCall/Postprocessor/BatchMultiClassNonMaxSuppression/MultiClassNonMaxSuppression/concat_2/axis",
        "op": "Const",
        "attr": {
          "value": {
            "tensor": {
              "dtype": "DT_INT32",
              "tensorShape": {}
            }
          },
          "dtype": {
            "type": "DT_INT32"
          }
        }
      },
      {
        "name": "StatefulPartitionedCall/Postprocessor/BatchMultiClassNonMaxSuppression/MultiClassNonMaxSuppression/Gather_1/GatherV2_5/axis",
        "op": "Const",
        "attr": {
          "dtype": {
            "type": "DT_INT32"
          },
          "value": {
            "tensor": {
              "dtype": "DT_INT32",
              "tensorShape": {}
            }
          }
        }
      },
      {
        "name": "StatefulPartitionedCall/Postprocessor/BatchMultiClassNonMaxSuppression/MultiClassNonMaxSuppression/Slice_2/begin",
        "op": "Const",
        "attr": {
          "value": {
            "tensor": {
              "dtype": "DT_INT32",
              "tensorShape": {
                "dim": [
                  {
                    "size": "2"
                  }
                ]
              }
            }
          },
          "dtype": {
            "type": "DT_INT32"
          }
        }
      },
      {
        "name": "StatefulPartitionedCall/Postprocessor/BatchMultiClassNonMaxSuppression/MultiClassNonMaxSuppression/stack_2",
        "op": "Const",
        "attr": {
          "dtype": {
            "type": "DT_INT32"
          },
          "value": {
            "tensor": {
              "dtype": "DT_INT32",
              "tensorShape": {
                "dim": [
                  {
                    "size": "2"
                  }
                ]
              }
            }
          }
        }
      },
      {
        "name": "StatefulPartitionedCall/Postprocessor/BatchMultiClassNonMaxSuppression/MultiClassNonMaxSuppression/Reshape_2/shape",
        "op": "Const",
        "attr": {
          "value": {
            "tensor": {
              "dtype": "DT_INT32",
              "tensorShape": {
                "dim": [
                  {
                    "size": "1"
                  }
                ]
              }
            }
          },
          "dtype": {
            "type": "DT_INT32"
          }
        }
      },
      {
        "name": "StatefulPartitionedCall/Postprocessor/BatchMultiClassNonMaxSuppression/MultiClassNonMaxSuppression/Minimum_2",
        "op": "Const",
        "attr": {
          "value": {
            "tensor": {
              "dtype": "DT_INT32",
              "tensorShape": {}
            }
          },
          "dtype": {
            "type": "DT_INT32"
          }
        }
      },
      {
        "name": "StatefulPartitionedCall/Postprocessor/BatchMultiClassNonMaxSuppression/MultiClassNonMaxSuppression/non_max_suppression_with_scores_2/iou_threshold",
        "op": "Const",
        "attr": {
          "dtype": {
            "type": "DT_FLOAT"
          },
          "value": {
            "tensor": {
              "dtype": "DT_FLOAT",
              "tensorShape": {}
            }
          }
        }
      },
      {
        "name": "StatefulPartitionedCall/Postprocessor/BatchMultiClassNonMaxSuppression/MultiClassNonMaxSuppression/non_max_suppression_with_scores_2/score_threshold",
        "op": "Const",
        "attr": {
          "value": {
            "tensor": {
              "dtype": "DT_FLOAT",
              "tensorShape": {}
            }
          },
          "dtype": {
            "type": "DT_FLOAT"
          }
        }
      },
      {
        "name": "StatefulPartitionedCall/Postprocessor/BatchMultiClassNonMaxSuppression/MultiClassNonMaxSuppression/non_max_suppression_with_scores_2/soft_nms_sigma",
        "op": "Const",
        "attr": {
          "value": {
            "tensor": {
              "dtype": "DT_FLOAT",
              "tensorShape": {}
            }
          },
          "dtype": {
            "type": "DT_FLOAT"
          }
        }
      },
      {
        "name": "StatefulPartitionedCall/Postprocessor/BatchMultiClassNonMaxSuppression/MultiClassNonMaxSuppression/strided_slice_6/stack",
        "op": "Const",
        "attr": {
          "value": {
            "tensor": {
              "dtype": "DT_INT32",
              "tensorShape": {
                "dim": [
                  {
                    "size": "1"
                  }
                ]
              }
            }
          },
          "dtype": {
            "type": "DT_INT32"
          }
        }
      },
      {
        "name": "StatefulPartitionedCall/Postprocessor/BatchMultiClassNonMaxSuppression/MultiClassNonMaxSuppression/strided_slice_6/stack_1",
        "op": "Const",
        "attr": {
          "value": {
            "tensor": {
              "dtype": "DT_INT32",
              "tensorShape": {
                "dim": [
                  {
                    "size": "1"
                  }
                ]
              }
            }
          },
          "dtype": {
            "type": "DT_INT32"
          }
        }
      },
      {
        "name": "StatefulPartitionedCall/Postprocessor/BatchMultiClassNonMaxSuppression/MultiClassNonMaxSuppression/strided_slice_6/stack_2",
        "op": "Const",
        "attr": {
          "value": {
            "tensor": {
              "dtype": "DT_INT32",
              "tensorShape": {
                "dim": [
                  {
                    "size": "1"
                  }
                ]
              }
            }
          },
          "dtype": {
            "type": "DT_INT32"
          }
        }
      },
      {
        "name": "StatefulPartitionedCall/Postprocessor/BatchMultiClassNonMaxSuppression/MultiClassNonMaxSuppression/zeros_4/Reshape/shape",
        "op": "Const",
        "attr": {
          "value": {
            "tensor": {
              "dtype": "DT_INT32",
              "tensorShape": {
                "dim": [
                  {
                    "size": "1"
                  }
                ]
              }
            }
          },
          "dtype": {
            "type": "DT_INT32"
          }
        }
      },
      {
        "name": "StatefulPartitionedCall/Postprocessor/BatchMultiClassNonMaxSuppression/MultiClassNonMaxSuppression/zeros_4/Const",
        "op": "Const",
        "attr": {
          "dtype": {
            "type": "DT_INT32"
          },
          "value": {
            "tensor": {
              "dtype": "DT_INT32",
              "tensorShape": {}
            }
          }
        }
      },
      {
        "name": "StatefulPartitionedCall/Postprocessor/BatchMultiClassNonMaxSuppression/MultiClassNonMaxSuppression/concat_4/axis",
        "op": "Const",
        "attr": {
          "value": {
            "tensor": {
              "dtype": "DT_INT32",
              "tensorShape": {}
            }
          },
          "dtype": {
            "type": "DT_INT32"
          }
        }
      },
      {
        "name": "StatefulPartitionedCall/Postprocessor/BatchMultiClassNonMaxSuppression/MultiClassNonMaxSuppression/Gather_2/GatherV2_5/axis",
        "op": "Const",
        "attr": {
          "value": {
            "tensor": {
              "dtype": "DT_INT32",
              "tensorShape": {}
            }
          },
          "dtype": {
            "type": "DT_INT32"
          }
        }
      },
      {
        "name": "ConstantFolding/StatefulPartitionedCall/Postprocessor/Decode/truediv_4_recip",
        "op": "Const",
        "attr": {
          "dtype": {
            "type": "DT_FLOAT"
          },
          "value": {
            "tensor": {
              "dtype": "DT_FLOAT",
              "tensorShape": {}
            }
          }
        }
      },
      {
        "name": "ConstantFolding/StatefulPartitionedCall/Postprocessor/Decode/truediv_5_recip",
        "op": "Const",
        "attr": {
          "dtype": {
            "type": "DT_FLOAT"
          },
          "value": {
            "tensor": {
              "dtype": "DT_FLOAT",
              "tensorShape": {}
            }
          }
        }
      },
      {
        "name": "StatefulPartitionedCall/Postprocessor/Decode/truediv",
        "op": "Const",
        "attr": {
          "dtype": {
            "type": "DT_FLOAT"
          },
          "value": {
            "tensor": {
              "dtype": "DT_FLOAT",
              "tensorShape": {
                "dim": [
                  {
                    "size": "1917"
                  }
                ]
              }
            }
          }
        }
      },
      {
        "name": "StatefulPartitionedCall/Postprocessor/Decode/get_center_coordinates_and_sizes/add",
        "op": "Const",
        "attr": {
          "value": {
            "tensor": {
              "dtype": "DT_FLOAT",
              "tensorShape": {
                "dim": [
                  {
                    "size": "1917"
                  }
                ]
              }
            }
          },
          "dtype": {
            "type": "DT_FLOAT"
          }
        }
      },
      {
        "name": "ConstantFolding/StatefulPartitionedCall/Postprocessor/Decode/truediv_2_recip",
        "op": "Const",
        "attr": {
          "value": {
            "tensor": {
              "dtype": "DT_FLOAT",
              "tensorShape": {}
            }
          },
          "dtype": {
            "type": "DT_FLOAT"
          }
        }
      },
      {
        "name": "StatefulPartitionedCall/Postprocessor/Decode/get_center_coordinates_and_sizes/sub_1",
        "op": "Const",
        "attr": {
          "value": {
            "tensor": {
              "dtype": "DT_FLOAT",
              "tensorShape": {
                "dim": [
                  {
                    "size": "1917"
                  }
                ]
              }
            }
          },
          "dtype": {
            "type": "DT_FLOAT"
          }
        }
      },
      {
        "name": "ConstantFolding/StatefulPartitionedCall/Postprocessor/Decode/truediv_6_recip",
        "op": "Const",
        "attr": {
          "dtype": {
            "type": "DT_FLOAT"
          },
          "value": {
            "tensor": {
              "dtype": "DT_FLOAT",
              "tensorShape": {}
            }
          }
        }
      },
      {
        "name": "StatefulPartitionedCall/Postprocessor/Decode/truediv_1",
        "op": "Const",
        "attr": {
          "value": {
            "tensor": {
              "dtype": "DT_FLOAT",
              "tensorShape": {
                "dim": [
                  {
                    "size": "1917"
                  }
                ]
              }
            }
          },
          "dtype": {
            "type": "DT_FLOAT"
          }
        }
      },
      {
        "name": "StatefulPartitionedCall/Postprocessor/Decode/get_center_coordinates_and_sizes/add_1",
        "op": "Const",
        "attr": {
          "dtype": {
            "type": "DT_FLOAT"
          },
          "value": {
            "tensor": {
              "dtype": "DT_FLOAT",
              "tensorShape": {
                "dim": [
                  {
                    "size": "1917"
                  }
                ]
              }
            }
          }
        }
      },
      {
        "name": "unknown_299",
        "op": "Const",
        "attr": {
          "value": {
            "tensor": {
              "dtype": "DT_FLOAT",
              "tensorShape": {
                "dim": [
                  {
                    "size": "1"
                  },
                  {
                    "size": "1"
                  },
                  {
                    "size": "576"
                  },
                  {
                    "size": "12"
                  }
                ]
              }
            }
          },
          "dtype": {
            "type": "DT_FLOAT"
          }
        }
      },
      {
        "name": "unknown_300",
        "op": "Const",
        "attr": {
          "dtype": {
            "type": "DT_FLOAT"
          },
          "value": {
            "tensor": {
              "dtype": "DT_FLOAT",
              "tensorShape": {
                "dim": [
                  {
                    "size": "12"
                  }
                ]
              }
            }
          }
        }
      },
      {
        "name": "StatefulPartitionedCall/BoxPredictor/ConvolutionalBoxHead_0/Reshape/shape",
        "op": "Const",
        "attr": {
          "value": {
            "tensor": {
              "dtype": "DT_INT32",
              "tensorShape": {
                "dim": [
                  {
                    "size": "4"
                  }
                ]
              }
            }
          },
          "dtype": {
            "type": "DT_INT32"
          }
        }
      },
      {
        "name": "unknown_303",
        "op": "Const",
        "attr": {
          "value": {
            "tensor": {
              "dtype": "DT_FLOAT",
              "tensorShape": {
                "dim": [
                  {
                    "size": "1"
                  },
                  {
                    "size": "1"
                  },
                  {
                    "size": "1280"
                  },
                  {
                    "size": "24"
                  }
                ]
              }
            }
          },
          "dtype": {
            "type": "DT_FLOAT"
          }
        }
      },
      {
        "name": "unknown_304",
        "op": "Const",
        "attr": {
          "value": {
            "tensor": {
              "dtype": "DT_FLOAT",
              "tensorShape": {
                "dim": [
                  {
                    "size": "24"
                  }
                ]
              }
            }
          },
          "dtype": {
            "type": "DT_FLOAT"
          }
        }
      },
      {
        "name": "StatefulPartitionedCall/BoxPredictor/ConvolutionalBoxHead_1/Reshape/shape",
        "op": "Const",
        "attr": {
          "dtype": {
            "type": "DT_INT32"
          },
          "value": {
            "tensor": {
              "dtype": "DT_INT32",
              "tensorShape": {
                "dim": [
                  {
                    "size": "4"
                  }
                ]
              }
            }
          }
        }
      },
      {
        "name": "unknown_307",
        "op": "Const",
        "attr": {
          "value": {
            "tensor": {
              "dtype": "DT_FLOAT",
              "tensorShape": {
                "dim": [
                  {
                    "size": "1"
                  },
                  {
                    "size": "1"
                  },
                  {
                    "size": "512"
                  },
                  {
                    "size": "24"
                  }
                ]
              }
            }
          },
          "dtype": {
            "type": "DT_FLOAT"
          }
        }
      },
      {
        "name": "unknown_308",
        "op": "Const",
        "attr": {
          "value": {
            "tensor": {
              "dtype": "DT_FLOAT",
              "tensorShape": {
                "dim": [
                  {
                    "size": "24"
                  }
                ]
              }
            }
          },
          "dtype": {
            "type": "DT_FLOAT"
          }
        }
      },
      {
        "name": "StatefulPartitionedCall/BoxPredictor/ConvolutionalBoxHead_2/Reshape/shape",
        "op": "Const",
        "attr": {
          "value": {
            "tensor": {
              "dtype": "DT_INT32",
              "tensorShape": {
                "dim": [
                  {
                    "size": "4"
                  }
                ]
              }
            }
          },
          "dtype": {
            "type": "DT_INT32"
          }
        }
      },
      {
        "name": "unknown_311",
        "op": "Const",
        "attr": {
          "dtype": {
            "type": "DT_FLOAT"
          },
          "value": {
            "tensor": {
              "dtype": "DT_FLOAT",
              "tensorShape": {
                "dim": [
                  {
                    "size": "1"
                  },
                  {
                    "size": "1"
                  },
                  {
                    "size": "256"
                  },
                  {
                    "size": "24"
                  }
                ]
              }
            }
          }
        }
      },
      {
        "name": "unknown_312",
        "op": "Const",
        "attr": {
          "value": {
            "tensor": {
              "dtype": "DT_FLOAT",
              "tensorShape": {
                "dim": [
                  {
                    "size": "24"
                  }
                ]
              }
            }
          },
          "dtype": {
            "type": "DT_FLOAT"
          }
        }
      },
      {
        "name": "StatefulPartitionedCall/BoxPredictor/ConvolutionalBoxHead_3/Reshape/shape",
        "op": "Const",
        "attr": {
          "value": {
            "tensor": {
              "dtype": "DT_INT32",
              "tensorShape": {
                "dim": [
                  {
                    "size": "4"
                  }
                ]
              }
            }
          },
          "dtype": {
            "type": "DT_INT32"
          }
        }
      },
      {
        "name": "unknown_315",
        "op": "Const",
        "attr": {
          "value": {
            "tensor": {
              "dtype": "DT_FLOAT",
              "tensorShape": {
                "dim": [
                  {
                    "size": "1"
                  },
                  {
                    "size": "1"
                  },
                  {
                    "size": "256"
                  },
                  {
                    "size": "24"
                  }
                ]
              }
            }
          },
          "dtype": {
            "type": "DT_FLOAT"
          }
        }
      },
      {
        "name": "unknown_316",
        "op": "Const",
        "attr": {
          "value": {
            "tensor": {
              "dtype": "DT_FLOAT",
              "tensorShape": {
                "dim": [
                  {
                    "size": "24"
                  }
                ]
              }
            }
          },
          "dtype": {
            "type": "DT_FLOAT"
          }
        }
      },
      {
        "name": "StatefulPartitionedCall/BoxPredictor/ConvolutionalBoxHead_4/Reshape/shape",
        "op": "Const",
        "attr": {
          "dtype": {
            "type": "DT_INT32"
          },
          "value": {
            "tensor": {
              "dtype": "DT_INT32",
              "tensorShape": {
                "dim": [
                  {
                    "size": "4"
                  }
                ]
              }
            }
          }
        }
      },
      {
        "name": "unknown_319",
        "op": "Const",
        "attr": {
          "value": {
            "tensor": {
              "dtype": "DT_FLOAT",
              "tensorShape": {
                "dim": [
                  {
                    "size": "1"
                  },
                  {
                    "size": "1"
                  },
                  {
                    "size": "128"
                  },
                  {
                    "size": "24"
                  }
                ]
              }
            }
          },
          "dtype": {
            "type": "DT_FLOAT"
          }
        }
      },
      {
        "name": "unknown_320",
        "op": "Const",
        "attr": {
          "value": {
            "tensor": {
              "dtype": "DT_FLOAT",
              "tensorShape": {
                "dim": [
                  {
                    "size": "24"
                  }
                ]
              }
            }
          },
          "dtype": {
            "type": "DT_FLOAT"
          }
        }
      },
      {
        "name": "StatefulPartitionedCall/BoxPredictor/ConvolutionalBoxHead_5/Reshape/shape",
        "op": "Const",
        "attr": {
          "value": {
            "tensor": {
              "dtype": "DT_INT32",
              "tensorShape": {
                "dim": [
                  {
                    "size": "4"
                  }
                ]
              }
            }
          },
          "dtype": {
            "type": "DT_INT32"
          }
        }
      },
      {
        "name": "StatefulPartitionedCall/concat/axis",
        "op": "Const",
        "attr": {
          "value": {
            "tensor": {
              "dtype": "DT_INT32",
              "tensorShape": {}
            }
          },
          "dtype": {
            "type": "DT_INT32"
          }
        }
      },
      {
        "name": "StatefulPartitionedCall/Postprocessor/Reshape_1/shape",
        "op": "Const",
        "attr": {
          "value": {
            "tensor": {
              "dtype": "DT_INT32",
              "tensorShape": {
                "dim": [
                  {
                    "size": "2"
                  }
                ]
              }
            }
          },
          "dtype": {
            "type": "DT_INT32"
          }
        }
      },
      {
        "name": "StatefulPartitionedCall/Postprocessor/Decode/transpose/perm",
        "op": "Const",
        "attr": {
          "value": {
            "tensor": {
              "dtype": "DT_INT32",
              "tensorShape": {
                "dim": [
                  {
                    "size": "2"
                  }
                ]
              }
            }
          },
          "dtype": {
            "type": "DT_INT32"
          }
        }
      },
      {
        "name": "ConstantFolding/StatefulPartitionedCall/Postprocessor/Decode/truediv_3_recip",
        "op": "Const",
        "attr": {
          "dtype": {
            "type": "DT_FLOAT"
          },
          "value": {
            "tensor": {
              "dtype": "DT_FLOAT",
              "tensorShape": {}
            }
          }
        }
      },
      {
        "name": "StatefulPartitionedCall/Postprocessor/Decode/get_center_coordinates_and_sizes/sub",
        "op": "Const",
        "attr": {
          "value": {
            "tensor": {
              "dtype": "DT_FLOAT",
              "tensorShape": {
                "dim": [
                  {
                    "size": "1917"
                  }
                ]
              }
            }
          },
          "dtype": {
            "type": "DT_FLOAT"
          }
        }
      },
      {
        "name": "ConstantFolding/StatefulPartitionedCall/Postprocessor/Decode/truediv_7_recip",
        "op": "Const",
        "attr": {
          "dtype": {
            "type": "DT_FLOAT"
          },
          "value": {
            "tensor": {
              "dtype": "DT_FLOAT",
              "tensorShape": {}
            }
          }
        }
      },
      {
        "name": "StatefulPartitionedCall/Postprocessor/Decode/transpose_1/perm",
        "op": "Const",
        "attr": {
          "value": {
            "tensor": {
              "dtype": "DT_INT32",
              "tensorShape": {
                "dim": [
                  {
                    "size": "2"
                  }
                ]
              }
            }
          },
          "dtype": {
            "type": "DT_INT32"
          }
        }
      },
      {
        "name": "StatefulPartitionedCall/Postprocessor/stack",
        "op": "Const",
        "attr": {
          "dtype": {
            "type": "DT_INT32"
          },
          "value": {
            "tensor": {
              "dtype": "DT_INT32",
              "tensorShape": {
                "dim": [
                  {
                    "size": "3"
                  }
                ]
              }
            }
          }
        }
      },
      {
        "name": "StatefulPartitionedCall/Postprocessor/ExpandDims_1/dim",
        "op": "Const",
        "attr": {
          "value": {
            "tensor": {
              "dtype": "DT_INT32",
              "tensorShape": {}
            }
          },
          "dtype": {
            "type": "DT_INT32"
          }
        }
      },
      {
        "name": "unknown_301",
        "op": "Const",
        "attr": {
          "value": {
            "tensor": {
              "dtype": "DT_FLOAT",
              "tensorShape": {
                "dim": [
                  {
                    "size": "1"
                  },
                  {
                    "size": "1"
                  },
                  {
                    "size": "576"
                  },
                  {
                    "size": "15"
                  }
                ]
              }
            }
          },
          "dtype": {
            "type": "DT_FLOAT"
          }
        }
      },
      {
        "name": "unknown_302",
        "op": "Const",
        "attr": {
          "dtype": {
            "type": "DT_FLOAT"
          },
          "value": {
            "tensor": {
              "dtype": "DT_FLOAT",
              "tensorShape": {
                "dim": [
                  {
                    "size": "15"
                  }
                ]
              }
            }
          }
        }
      },
      {
        "name": "StatefulPartitionedCall/BoxPredictor/ConvolutionalClassHead_0/Reshape/shape",
        "op": "Const",
        "attr": {
          "dtype": {
            "type": "DT_INT32"
          },
          "value": {
            "tensor": {
              "dtype": "DT_INT32",
              "tensorShape": {
                "dim": [
                  {
                    "size": "3"
                  }
                ]
              }
            }
          }
        }
      },
      {
        "name": "unknown_305",
        "op": "Const",
        "attr": {
          "dtype": {
            "type": "DT_FLOAT"
          },
          "value": {
            "tensor": {
              "dtype": "DT_FLOAT",
              "tensorShape": {
                "dim": [
                  {
                    "size": "1"
                  },
                  {
                    "size": "1"
                  },
                  {
                    "size": "1280"
                  },
                  {
                    "size": "30"
                  }
                ]
              }
            }
          }
        }
      },
      {
        "name": "unknown_306",
        "op": "Const",
        "attr": {
          "value": {
            "tensor": {
              "dtype": "DT_FLOAT",
              "tensorShape": {
                "dim": [
                  {
                    "size": "30"
                  }
                ]
              }
            }
          },
          "dtype": {
            "type": "DT_FLOAT"
          }
        }
      },
      {
        "name": "StatefulPartitionedCall/BoxPredictor/ConvolutionalClassHead_1/Reshape/shape",
        "op": "Const",
        "attr": {
          "dtype": {
            "type": "DT_INT32"
          },
          "value": {
            "tensor": {
              "dtype": "DT_INT32",
              "tensorShape": {
                "dim": [
                  {
                    "size": "3"
                  }
                ]
              }
            }
          }
        }
      },
      {
        "name": "unknown_309",
        "op": "Const",
        "attr": {
          "value": {
            "tensor": {
              "dtype": "DT_FLOAT",
              "tensorShape": {
                "dim": [
                  {
                    "size": "1"
                  },
                  {
                    "size": "1"
                  },
                  {
                    "size": "512"
                  },
                  {
                    "size": "30"
                  }
                ]
              }
            }
          },
          "dtype": {
            "type": "DT_FLOAT"
          }
        }
      },
      {
        "name": "unknown_310",
        "op": "Const",
        "attr": {
          "value": {
            "tensor": {
              "dtype": "DT_FLOAT",
              "tensorShape": {
                "dim": [
                  {
                    "size": "30"
                  }
                ]
              }
            }
          },
          "dtype": {
            "type": "DT_FLOAT"
          }
        }
      },
      {
        "name": "StatefulPartitionedCall/BoxPredictor/ConvolutionalClassHead_2/Reshape/shape",
        "op": "Const",
        "attr": {
          "dtype": {
            "type": "DT_INT32"
          },
          "value": {
            "tensor": {
              "dtype": "DT_INT32",
              "tensorShape": {
                "dim": [
                  {
                    "size": "3"
                  }
                ]
              }
            }
          }
        }
      },
      {
        "name": "unknown_313",
        "op": "Const",
        "attr": {
          "value": {
            "tensor": {
              "dtype": "DT_FLOAT",
              "tensorShape": {
                "dim": [
                  {
                    "size": "1"
                  },
                  {
                    "size": "1"
                  },
                  {
                    "size": "256"
                  },
                  {
                    "size": "30"
                  }
                ]
              }
            }
          },
          "dtype": {
            "type": "DT_FLOAT"
          }
        }
      },
      {
        "name": "unknown_314",
        "op": "Const",
        "attr": {
          "value": {
            "tensor": {
              "dtype": "DT_FLOAT",
              "tensorShape": {
                "dim": [
                  {
                    "size": "30"
                  }
                ]
              }
            }
          },
          "dtype": {
            "type": "DT_FLOAT"
          }
        }
      },
      {
        "name": "StatefulPartitionedCall/BoxPredictor/ConvolutionalClassHead_3/Reshape/shape",
        "op": "Const",
        "attr": {
          "value": {
            "tensor": {
              "dtype": "DT_INT32",
              "tensorShape": {
                "dim": [
                  {
                    "size": "3"
                  }
                ]
              }
            }
          },
          "dtype": {
            "type": "DT_INT32"
          }
        }
      },
      {
        "name": "unknown_317",
        "op": "Const",
        "attr": {
          "dtype": {
            "type": "DT_FLOAT"
          },
          "value": {
            "tensor": {
              "dtype": "DT_FLOAT",
              "tensorShape": {
                "dim": [
                  {
                    "size": "1"
                  },
                  {
                    "size": "1"
                  },
                  {
                    "size": "256"
                  },
                  {
                    "size": "30"
                  }
                ]
              }
            }
          }
        }
      },
      {
        "name": "unknown_318",
        "op": "Const",
        "attr": {
          "dtype": {
            "type": "DT_FLOAT"
          },
          "value": {
            "tensor": {
              "dtype": "DT_FLOAT",
              "tensorShape": {
                "dim": [
                  {
                    "size": "30"
                  }
                ]
              }
            }
          }
        }
      },
      {
        "name": "StatefulPartitionedCall/BoxPredictor/ConvolutionalClassHead_4/Reshape/shape",
        "op": "Const",
        "attr": {
          "dtype": {
            "type": "DT_INT32"
          },
          "value": {
            "tensor": {
              "dtype": "DT_INT32",
              "tensorShape": {
                "dim": [
                  {
                    "size": "3"
                  }
                ]
              }
            }
          }
        }
      },
      {
        "name": "StatefulPartitionedCall/Preprocessor/mul/x",
        "op": "Const",
        "attr": {
          "dtype": {
            "type": "DT_FLOAT"
          },
          "value": {
            "tensor": {
              "dtype": "DT_FLOAT",
              "tensorShape": {}
            }
          }
        }
      },
      {
        "name": "StatefulPartitionedCall/Preprocessor/sub/y",
        "op": "Const",
        "attr": {
          "value": {
            "tensor": {
              "dtype": "DT_FLOAT",
              "tensorShape": {}
            }
          },
          "dtype": {
            "type": "DT_FLOAT"
          }
        }
      },
      {
        "name": "StatefulPartitionedCall/Preprocessor/ResizeImage/resize/ExpandDims/dim",
        "op": "Const",
        "attr": {
          "dtype": {
            "type": "DT_INT32"
          },
          "value": {
            "tensor": {
              "dtype": "DT_INT32",
              "tensorShape": {}
            }
          }
        }
      },
      {
        "name": "StatefulPartitionedCall/Preprocessor/ResizeImage/stack",
        "op": "Const",
        "attr": {
          "dtype": {
            "type": "DT_INT32"
          },
          "value": {
            "tensor": {
              "dtype": "DT_INT32",
              "tensorShape": {
                "dim": [
                  {
                    "size": "2"
                  }
                ]
              }
            }
          }
        }
      },
      {
        "name": "unknown_321",
        "op": "Const",
        "attr": {
          "dtype": {
            "type": "DT_FLOAT"
          },
          "value": {
            "tensor": {
              "dtype": "DT_FLOAT",
              "tensorShape": {
                "dim": [
                  {
                    "size": "1"
                  },
                  {
                    "size": "1"
                  },
                  {
                    "size": "128"
                  },
                  {
                    "size": "30"
                  }
                ]
              }
            }
          }
        }
      },
      {
        "name": "unknown_322",
        "op": "Const",
        "attr": {
          "dtype": {
            "type": "DT_FLOAT"
          },
          "value": {
            "tensor": {
              "dtype": "DT_FLOAT",
              "tensorShape": {
                "dim": [
                  {
                    "size": "30"
                  }
                ]
              }
            }
          }
        }
      },
      {
        "name": "StatefulPartitionedCall/BoxPredictor/ConvolutionalClassHead_5/Reshape/shape",
        "op": "Const",
        "attr": {
          "value": {
            "tensor": {
              "dtype": "DT_INT32",
              "tensorShape": {
                "dim": [
                  {
                    "size": "3"
                  }
                ]
              }
            }
          },
          "dtype": {
            "type": "DT_INT32"
          }
        }
      },
      {
        "name": "StatefulPartitionedCall/concat_1/axis",
        "op": "Const",
        "attr": {
          "dtype": {
            "type": "DT_INT32"
          },
          "value": {
            "tensor": {
              "dtype": "DT_INT32",
              "tensorShape": {}
            }
          }
        }
      },
      {
        "name": "StatefulPartitionedCall/Postprocessor/Slice/begin",
        "op": "Const",
        "attr": {
          "dtype": {
            "type": "DT_INT32"
          },
          "value": {
            "tensor": {
              "dtype": "DT_INT32",
              "tensorShape": {
                "dim": [
                  {
                    "size": "3"
                  }
                ]
              }
            }
          }
        }
      },
      {
        "name": "StatefulPartitionedCall/Postprocessor/Slice/size",
        "op": "Const",
        "attr": {
          "value": {
            "tensor": {
              "dtype": "DT_INT32",
              "tensorShape": {
                "dim": [
                  {
                    "size": "3"
                  }
                ]
              }
            }
          },
          "dtype": {
            "type": "DT_INT32"
          }
        }
      },
      {
        "name": "StatefulPartitionedCall/Postprocessor/BatchMultiClassNonMaxSuppression/MultiClassNonMaxSuppression/Slice_3/begin",
        "op": "Const",
        "attr": {
          "dtype": {
            "type": "DT_INT32"
          },
          "value": {
            "tensor": {
              "dtype": "DT_INT32",
              "tensorShape": {
                "dim": [
                  {
                    "size": "2"
                  }
                ]
              }
            }
          }
        }
      },
      {
        "name": "StatefulPartitionedCall/Postprocessor/BatchMultiClassNonMaxSuppression/MultiClassNonMaxSuppression/stack_3",
        "op": "Const",
        "attr": {
          "dtype": {
            "type": "DT_INT32"
          },
          "value": {
            "tensor": {
              "dtype": "DT_INT32",
              "tensorShape": {
                "dim": [
                  {
                    "size": "2"
                  }
                ]
              }
            }
          }
        }
      },
      {
        "name": "StatefulPartitionedCall/Postprocessor/BatchMultiClassNonMaxSuppression/MultiClassNonMaxSuppression/Reshape_3/shape",
        "op": "Const",
        "attr": {
          "value": {
            "tensor": {
              "dtype": "DT_INT32",
              "tensorShape": {
                "dim": [
                  {
                    "size": "1"
                  }
                ]
              }
            }
          },
          "dtype": {
            "type": "DT_INT32"
          }
        }
      },
      {
        "name": "StatefulPartitionedCall/Postprocessor/BatchMultiClassNonMaxSuppression/MultiClassNonMaxSuppression/Minimum_3",
        "op": "Const",
        "attr": {
          "value": {
            "tensor": {
              "dtype": "DT_INT32",
              "tensorShape": {}
            }
          },
          "dtype": {
            "type": "DT_INT32"
          }
        }
      },
      {
        "name": "StatefulPartitionedCall/Postprocessor/BatchMultiClassNonMaxSuppression/MultiClassNonMaxSuppression/non_max_suppression_with_scores_3/iou_threshold",
        "op": "Const",
        "attr": {
          "dtype": {
            "type": "DT_FLOAT"
          },
          "value": {
            "tensor": {
              "dtype": "DT_FLOAT",
              "tensorShape": {}
            }
          }
        }
      },
      {
        "name": "StatefulPartitionedCall/Postprocessor/BatchMultiClassNonMaxSuppression/MultiClassNonMaxSuppression/non_max_suppression_with_scores_3/score_threshold",
        "op": "Const",
        "attr": {
          "value": {
            "tensor": {
              "dtype": "DT_FLOAT",
              "tensorShape": {}
            }
          },
          "dtype": {
            "type": "DT_FLOAT"
          }
        }
      },
      {
        "name": "StatefulPartitionedCall/Postprocessor/BatchMultiClassNonMaxSuppression/MultiClassNonMaxSuppression/non_max_suppression_with_scores_3/soft_nms_sigma",
        "op": "Const",
        "attr": {
          "value": {
            "tensor": {
              "dtype": "DT_FLOAT",
              "tensorShape": {}
            }
          },
          "dtype": {
            "type": "DT_FLOAT"
          }
        }
      },
      {
        "name": "StatefulPartitionedCall/Postprocessor/BatchMultiClassNonMaxSuppression/MultiClassNonMaxSuppression/strided_slice_8/stack",
        "op": "Const",
        "attr": {
          "dtype": {
            "type": "DT_INT32"
          },
          "value": {
            "tensor": {
              "dtype": "DT_INT32",
              "tensorShape": {
                "dim": [
                  {
                    "size": "1"
                  }
                ]
              }
            }
          }
        }
      },
      {
        "name": "StatefulPartitionedCall/Postprocessor/BatchMultiClassNonMaxSuppression/MultiClassNonMaxSuppression/strided_slice_8/stack_1",
        "op": "Const",
        "attr": {
          "dtype": {
            "type": "DT_INT32"
          },
          "value": {
            "tensor": {
              "dtype": "DT_INT32",
              "tensorShape": {
                "dim": [
                  {
                    "size": "1"
                  }
                ]
              }
            }
          }
        }
      },
      {
        "name": "StatefulPartitionedCall/Postprocessor/BatchMultiClassNonMaxSuppression/MultiClassNonMaxSuppression/strided_slice_8/stack_2",
        "op": "Const",
        "attr": {
          "value": {
            "tensor": {
              "dtype": "DT_INT32",
              "tensorShape": {
                "dim": [
                  {
                    "size": "1"
                  }
                ]
              }
            }
          },
          "dtype": {
            "type": "DT_INT32"
          }
        }
      },
      {
        "name": "StatefulPartitionedCall/Postprocessor/BatchMultiClassNonMaxSuppression/MultiClassNonMaxSuppression/zeros_6/Reshape/shape",
        "op": "Const",
        "attr": {
          "dtype": {
            "type": "DT_INT32"
          },
          "value": {
            "tensor": {
              "dtype": "DT_INT32",
              "tensorShape": {
                "dim": [
                  {
                    "size": "1"
                  }
                ]
              }
            }
          }
        }
      },
      {
        "name": "StatefulPartitionedCall/Postprocessor/BatchMultiClassNonMaxSuppression/MultiClassNonMaxSuppression/zeros_6/Const",
        "op": "Const",
        "attr": {
          "dtype": {
            "type": "DT_INT32"
          },
          "value": {
            "tensor": {
              "dtype": "DT_INT32",
              "tensorShape": {}
            }
          }
        }
      },
      {
        "name": "StatefulPartitionedCall/Postprocessor/BatchMultiClassNonMaxSuppression/MultiClassNonMaxSuppression/concat_6/axis",
        "op": "Const",
        "attr": {
          "value": {
            "tensor": {
              "dtype": "DT_INT32",
              "tensorShape": {}
            }
          },
          "dtype": {
            "type": "DT_INT32"
          }
        }
      },
      {
        "name": "StatefulPartitionedCall/Postprocessor/BatchMultiClassNonMaxSuppression/MultiClassNonMaxSuppression/Gather_3/GatherV2_5/axis",
        "op": "Const",
        "attr": {
          "dtype": {
            "type": "DT_INT32"
          },
          "value": {
            "tensor": {
              "dtype": "DT_INT32",
              "tensorShape": {}
            }
          }
        }
      },
      {
        "name": "StatefulPartitionedCall/Postprocessor/BatchMultiClassNonMaxSuppression/MultiClassNonMaxSuppression/Concatenate/concat/axis",
        "op": "Const",
        "attr": {
          "dtype": {
            "type": "DT_INT32"
          },
          "value": {
            "tensor": {
              "dtype": "DT_INT32",
              "tensorShape": {}
            }
          }
        }
      },
      {
        "name": "StatefulPartitionedCall/Postprocessor/BatchMultiClassNonMaxSuppression/MultiClassNonMaxSuppression/SortByField/strided_slice/stack",
        "op": "Const",
        "attr": {
          "dtype": {
            "type": "DT_INT32"
          },
          "value": {
            "tensor": {
              "dtype": "DT_INT32",
              "tensorShape": {
                "dim": [
                  {
                    "size": "1"
                  }
                ]
              }
            }
          }
        }
      },
      {
        "name": "StatefulPartitionedCall/Postprocessor/BatchMultiClassNonMaxSuppression/MultiClassNonMaxSuppression/SortByField/strided_slice/stack_1",
        "op": "Const",
        "attr": {
          "dtype": {
            "type": "DT_INT32"
          },
          "value": {
            "tensor": {
              "dtype": "DT_INT32",
              "tensorShape": {
                "dim": [
                  {
                    "size": "1"
                  }
                ]
              }
            }
          }
        }
      },
      {
        "name": "StatefulPartitionedCall/Postprocessor/BatchMultiClassNonMaxSuppression/MultiClassNonMaxSuppression/SortByField/strided_slice/stack_2",
        "op": "Const",
        "attr": {
          "dtype": {
            "type": "DT_INT32"
          },
          "value": {
            "tensor": {
              "dtype": "DT_INT32",
              "tensorShape": {
                "dim": [
                  {
                    "size": "1"
                  }
                ]
              }
            }
          }
        }
      },
      {
        "name": "StatefulPartitionedCall/Postprocessor/BatchMultiClassNonMaxSuppression/MultiClassNonMaxSuppression/SortByField/Gather/GatherV2_6/axis",
        "op": "Const",
        "attr": {
          "dtype": {
            "type": "DT_INT32"
          },
          "value": {
            "tensor": {
              "dtype": "DT_INT32",
              "tensorShape": {}
            }
          }
        }
      },
      {
        "name": "StatefulPartitionedCall/Postprocessor/BatchMultiClassNonMaxSuppression/MultiClassNonMaxSuppression/ClipToWindow/strided_slice_3",
        "op": "Const",
        "attr": {
          "value": {
            "tensor": {
              "dtype": "DT_FLOAT",
              "tensorShape": {}
            }
          },
          "dtype": {
            "type": "DT_FLOAT"
          }
        }
      },
      {
        "name": "StatefulPartitionedCall/Postprocessor/BatchMultiClassNonMaxSuppression/MultiClassNonMaxSuppression/ClipToWindow/strided_slice_1",
        "op": "Const",
        "attr": {
          "value": {
            "tensor": {
              "dtype": "DT_FLOAT",
              "tensorShape": {}
            }
          },
          "dtype": {
            "type": "DT_FLOAT"
          }
        }
      },
      {
        "name": "StatefulPartitionedCall/Postprocessor/BatchMultiClassNonMaxSuppression/MultiClassNonMaxSuppression/ClipToWindow/concat/axis",
        "op": "Const",
        "attr": {
          "dtype": {
            "type": "DT_INT32"
          },
          "value": {
            "tensor": {
              "dtype": "DT_INT32",
              "tensorShape": {}
            }
          }
        }
      },
      {
        "name": "StatefulPartitionedCall/Postprocessor/BatchMultiClassNonMaxSuppression/MultiClassNonMaxSuppression/ClipToWindow/Greater/y",
        "op": "Const",
        "attr": {
          "value": {
            "tensor": {
              "dtype": "DT_FLOAT",
              "tensorShape": {}
            }
          },
          "dtype": {
            "type": "DT_FLOAT"
          }
        }
      },
      {
        "name": "StatefulPartitionedCall/Postprocessor/BatchMultiClassNonMaxSuppression/MultiClassNonMaxSuppression/ClipToWindow/Reshape/shape",
        "op": "Const",
        "attr": {
          "value": {
            "tensor": {
              "dtype": "DT_INT32",
              "tensorShape": {
                "dim": [
                  {
                    "size": "1"
                  }
                ]
              }
            }
          },
          "dtype": {
            "type": "DT_INT32"
          }
        }
      },
      {
        "name": "StatefulPartitionedCall/Postprocessor/BatchMultiClassNonMaxSuppression/MultiClassNonMaxSuppression/ClipToWindow/Gather/GatherV2_6/axis",
        "op": "Const",
        "attr": {
          "value": {
            "tensor": {
              "dtype": "DT_INT32",
              "tensorShape": {}
            }
          },
          "dtype": {
            "type": "DT_INT32"
          }
        }
      },
      {
        "name": "StatefulPartitionedCall/Postprocessor/BatchMultiClassNonMaxSuppression/MultiClassNonMaxSuppression/strided_slice_9/stack",
        "op": "Const",
        "attr": {
          "dtype": {
            "type": "DT_INT32"
          },
          "value": {
            "tensor": {
              "dtype": "DT_INT32",
              "tensorShape": {
                "dim": [
                  {
                    "size": "1"
                  }
                ]
              }
            }
          }
        }
      },
      {
        "name": "StatefulPartitionedCall/Postprocessor/BatchMultiClassNonMaxSuppression/MultiClassNonMaxSuppression/strided_slice_9/stack_1",
        "op": "Const",
        "attr": {
          "value": {
            "tensor": {
              "dtype": "DT_INT32",
              "tensorShape": {
                "dim": [
                  {
                    "size": "1"
                  }
                ]
              }
            }
          },
          "dtype": {
            "type": "DT_INT32"
          }
        }
      },
      {
        "name": "StatefulPartitionedCall/Postprocessor/BatchMultiClassNonMaxSuppression/MultiClassNonMaxSuppression/strided_slice_9/stack_2",
        "op": "Const",
        "attr": {
          "value": {
            "tensor": {
              "dtype": "DT_INT32",
              "tensorShape": {
                "dim": [
                  {
                    "size": "1"
                  }
                ]
              }
            }
          },
          "dtype": {
            "type": "DT_INT32"
          }
        }
      },
      {
        "name": "StatefulPartitionedCall/Postprocessor/BatchMultiClassNonMaxSuppression/MultiClassNonMaxSuppression/ones_4/Reshape/shape",
        "op": "Const",
        "attr": {
          "dtype": {
            "type": "DT_INT32"
          },
          "value": {
            "tensor": {
              "dtype": "DT_INT32",
              "tensorShape": {
                "dim": [
                  {
                    "size": "1"
                  }
                ]
              }
            }
          }
        }
      },
      {
        "name": "StatefulPartitionedCall/Postprocessor/BatchMultiClassNonMaxSuppression/MultiClassNonMaxSuppression/ones_4/Const",
        "op": "Const",
        "attr": {
          "dtype": {
            "type": "DT_FLOAT"
          },
          "value": {
            "tensor": {
              "dtype": "DT_FLOAT",
              "tensorShape": {}
            }
          }
        }
      },
      {
        "name": "input_tensor",
        "op": "Placeholder",
        "attr": {
          "shape": {
            "shape": {
              "dim": [
                {
                  "size": "1"
                },
                {
                  "size": "-1"
                },
                {
                  "size": "-1"
                },
                {
                  "size": "3"
                }
              ]
            }
          },
          "dtype": {
            "type": "DT_UINT8"
          }
        }
      },
      {
        "name": "StatefulPartitionedCall/ssd_mobile_net_v2keras_feature_extractor/functional_1/Conv1/Conv2D_weights",
        "op": "Const",
        "attr": {
          "value": {
            "tensor": {
              "dtype": "DT_FLOAT",
              "tensorShape": {
                "dim": [
                  {
                    "size": "3"
                  },
                  {
                    "size": "3"
                  },
                  {
                    "size": "3"
                  },
                  {
                    "size": "32"
                  }
                ]
              }
            }
          },
          "dtype": {
            "type": "DT_FLOAT"
          }
        }
      },
      {
        "name": "StatefulPartitionedCall/ssd_mobile_net_v2keras_feature_extractor/functional_1/Conv1/Conv2D_bn_offset",
        "op": "Const",
        "attr": {
          "dtype": {
            "type": "DT_FLOAT"
          },
          "value": {
            "tensor": {
              "dtype": "DT_FLOAT",
              "tensorShape": {
                "dim": [
                  {
                    "size": "32"
                  }
                ]
              }
            }
          }
        }
      },
      {
        "name": "StatefulPartitionedCall/ssd_mobile_net_v2keras_feature_extractor/functional_1/expanded_conv_depthwise/depthwise_weights",
        "op": "Const",
        "attr": {
          "value": {
            "tensor": {
              "dtype": "DT_FLOAT",
              "tensorShape": {
                "dim": [
                  {
                    "size": "3"
                  },
                  {
                    "size": "3"
                  },
                  {
                    "size": "32"
                  },
                  {
                    "size": "1"
                  }
                ]
              }
            }
          },
          "dtype": {
            "type": "DT_FLOAT"
          }
        }
      },
      {
        "name": "StatefulPartitionedCall/ssd_mobile_net_v2keras_feature_extractor/functional_1/expanded_conv_depthwise/depthwise_bn_offset",
        "op": "Const",
        "attr": {
          "dtype": {
            "type": "DT_FLOAT"
          },
          "value": {
            "tensor": {
              "dtype": "DT_FLOAT",
              "tensorShape": {
                "dim": [
                  {
                    "size": "32"
                  }
                ]
              }
            }
          }
        }
      },
      {
        "name": "StatefulPartitionedCall/ssd_mobile_net_v2keras_feature_extractor/functional_1/expanded_conv_project/Conv2D_weights",
        "op": "Const",
        "attr": {
          "value": {
            "tensor": {
              "dtype": "DT_FLOAT",
              "tensorShape": {
                "dim": [
                  {
                    "size": "1"
                  },
                  {
                    "size": "1"
                  },
                  {
                    "size": "32"
                  },
                  {
                    "size": "16"
                  }
                ]
              }
            }
          },
          "dtype": {
            "type": "DT_FLOAT"
          }
        }
      },
      {
        "name": "StatefulPartitionedCall/ssd_mobile_net_v2keras_feature_extractor/functional_1/expanded_conv_project/Conv2D_bn_offset",
        "op": "Const",
        "attr": {
          "value": {
            "tensor": {
              "dtype": "DT_FLOAT",
              "tensorShape": {
                "dim": [
                  {
                    "size": "16"
                  }
                ]
              }
            }
          },
          "dtype": {
            "type": "DT_FLOAT"
          }
        }
      },
      {
        "name": "StatefulPartitionedCall/ssd_mobile_net_v2keras_feature_extractor/functional_1/block_1_expand/Conv2D_weights",
        "op": "Const",
        "attr": {
          "dtype": {
            "type": "DT_FLOAT"
          },
          "value": {
            "tensor": {
              "dtype": "DT_FLOAT",
              "tensorShape": {
                "dim": [
                  {
                    "size": "1"
                  },
                  {
                    "size": "1"
                  },
                  {
                    "size": "16"
                  },
                  {
                    "size": "96"
                  }
                ]
              }
            }
          }
        }
      },
      {
        "name": "StatefulPartitionedCall/ssd_mobile_net_v2keras_feature_extractor/functional_1/block_1_expand/Conv2D_bn_offset",
        "op": "Const",
        "attr": {
          "value": {
            "tensor": {
              "dtype": "DT_FLOAT",
              "tensorShape": {
                "dim": [
                  {
                    "size": "96"
                  }
                ]
              }
            }
          },
          "dtype": {
            "type": "DT_FLOAT"
          }
        }
      },
      {
        "name": "StatefulPartitionedCall/ssd_mobile_net_v2keras_feature_extractor/functional_1/block_1_depthwise/depthwise_weights",
        "op": "Const",
        "attr": {
          "value": {
            "tensor": {
              "dtype": "DT_FLOAT",
              "tensorShape": {
                "dim": [
                  {
                    "size": "3"
                  },
                  {
                    "size": "3"
                  },
                  {
                    "size": "96"
                  },
                  {
                    "size": "1"
                  }
                ]
              }
            }
          },
          "dtype": {
            "type": "DT_FLOAT"
          }
        }
      },
      {
        "name": "StatefulPartitionedCall/ssd_mobile_net_v2keras_feature_extractor/functional_1/block_1_depthwise/depthwise_bn_offset",
        "op": "Const",
        "attr": {
          "value": {
            "tensor": {
              "dtype": "DT_FLOAT",
              "tensorShape": {
                "dim": [
                  {
                    "size": "96"
                  }
                ]
              }
            }
          },
          "dtype": {
…
          "name": "StatefulPartitionedCall/ssd_mobile_net_v2keras_feature_extractor/functional_1/block_2_depthwise/depthwise_bn_offset",
          "shape": [
            144
          ],
          "dtype": "float32",
          "quantization": {
            "dtype": "uint8",
            "min": -6.081940448050405,
            "scale": 0.03873847419140385,
            "original_dtype": "float32"
          }
        },
        {
          "name": "StatefulPartitionedCall/ssd_mobile_net_v2keras_feature_extractor/functional_1/block_2_project/Conv2D_weights",
          "shape": [
            1,
            1,
            144,
            24
          ],
          "dtype": "float32",
          "quantization": {
            "dtype": "uint8",
            "min": -1.4832133942959356,
            "scale": 0.010229057891696107,
            "original_dtype": "float32"
          }
        },
        {
          "name": "StatefulPartitionedCall/ssd_mobile_net_v2keras_feature_extractor/functional_1/block_2_project/Conv2D_bn_offset",
          "shape": [
            24
          ],
          "dtype": "float32",
          "quantization": {
            "dtype": "uint8",
            "min": -6.301426360186408,
            "scale": 0.054322641036089726,
            "original_dtype": "float32"
          }
        },
        {
          "name": "StatefulPartitionedCall/ssd_mobile_net_v2keras_feature_extractor/functional_1/block_3_expand/Conv2D_weights",
          "shape": [
            1,
            1,
            24,
            144
          ],
          "dtype": "float32",
          "quantization": {
            "dtype": "uint8",
            "min": -0.15275572626029743,
            "scale": 0.0015429871339423984,
            "original_dtype": "float32"
          }
        },
        {
          "name": "StatefulPartitionedCall/ssd_mobile_net_v2keras_feature_extractor/functional_1/block_3_expand/Conv2D_bn_offset",
          "shape": [
            144
          ],
          "dtype": "float32",
          "quantization": {
            "dtype": "uint8",
            "min": -2.4700048895443185,
            "scale": 0.020081340565400965,
            "original_dtype": "float32"
          }
        },
        {
          "name": "StatefulPartitionedCall/ssd_mobile_net_v2keras_feature_extractor/functional_1/block_3_depthwise/depthwise_weights",
          "shape": [
            3,
            3,
            144,
            1
          ],
          "dtype": "float32",
          "quantization": {
            "dtype": "uint8",
            "min": -1.6051239934622075,
            "scale": 0.020318025233698828,
            "original_dtype": "float32"
          }
        },
        {
          "name": "StatefulPartitionedCall/ssd_mobile_net_v2keras_feature_extractor/functional_1/block_3_depthwise/depthwise_bn_offset",
          "shape": [
            144
          ],
          "dtype": "float32",
          "quantization": {
            "dtype": "uint8",
            "min": -3.364237014920104,
            "scale": 0.036567793640435914,
            "original_dtype": "float32"
          }
        },
        {
          "name": "StatefulPartitionedCall/ssd_mobile_net_v2keras_feature_extractor/functional_1/block_3_project/Conv2D_weights",
          "shape": [
            1,
            1,
            144,
            32
          ],
          "dtype": "float32",
          "quantization": {
            "dtype": "uint8",
            "min": -1.1900305649813485,
            "scale": 0.008439933084974103,
            "original_dtype": "float32"
          }
        },
        {
          "name": "StatefulPartitionedCall/ssd_mobile_net_v2keras_feature_extractor/functional_1/block_3_project/Conv2D_bn_offset",
          "shape": [
            32
          ],
          "dtype": "float32",
          "quantization": {
            "dtype": "uint8",
            "min": -9.706228475009695,
            "scale": 0.06602876513612037,
            "original_dtype": "float32"
          }
        },
        {
          "name": "StatefulPartitionedCall/ssd_mobile_net_v2keras_feature_extractor/functional_1/block_4_expand/Conv2D_weights",
          "shape": [
            1,
            1,
            32,
            192
          ],
          "dtype": "float32",
          "quantization": {
            "dtype": "uint8",
            "min": -0.1444479349781485,
            "scale": 0.0009142274365705602,
            "original_dtype": "float32"
          }
        },
        {
          "name": "StatefulPartitionedCall/ssd_mobile_net_v2keras_feature_extractor/functional_1/block_4_expand/Conv2D_bn_offset",
          "shape": [
            192
          ],
          "dtype": "float32",
          "quantization": {
            "dtype": "uint8",
            "min": -1.7112302392136818,
            "scale": 0.016942873655581007,
            "original_dtype": "float32"
          }
        },
        {
          "name": "StatefulPartitionedCall/ssd_mobile_net_v2keras_feature_extractor/functional_1/block_4_depthwise/depthwise_weights",
          "shape": [
            3,
            3,
            192,
            1
          ],
          "dtype": "float32",
          "quantization": {
            "dtype": "uint8",
            "min": -1.2818684694813747,
            "scale": 0.01349335231033026,
            "original_dtype": "float32"
          }
        },
        {
          "name": "StatefulPartitionedCall/ssd_mobile_net_v2keras_feature_extractor/functional_1/block_4_depthwise/depthwise_bn_offset",
          "shape": [
            192
          ],
          "dtype": "float32",
          "quantization": {
            "dtype": "uint8",
            "min": -11.007940943100873,
            "scale": 0.07056372399423637,
            "original_dtype": "float32"
          }
        },
        {
          "name": "StatefulPartitionedCall/ssd_mobile_net_v2keras_feature_extractor/functional_1/block_4_project/Conv2D_weights",
          "shape": [
            1,
            1,
            192,
            32
          ],
          "dtype": "float32",
          "quantization": {
            "dtype": "uint8",
            "min": -0.7893600814482744,
            "scale": 0.006264762551176781,
            "original_dtype": "float32"
          }
        },
        {
          "name": "StatefulPartitionedCall/ssd_mobile_net_v2keras_feature_extractor/functional_1/block_4_project/Conv2D_bn_offset",
          "shape": [
            32
          ],
          "dtype": "float32",
          "quantization": {
            "dtype": "uint8",
            "min": -1.8329104802187752,
            "scale": 0.027356872839086197,
            "original_dtype": "float32"
          }
        },
        {
          "name": "StatefulPartitionedCall/ssd_mobile_net_v2keras_feature_extractor/functional_1/block_5_expand/Conv2D_weights",
          "shape": [
            1,
            1,
            32,
            192
          ],
          "dtype": "float32",
          "quantization": {
            "dtype": "uint8",
            "min": -0.11217887866146425,
            "scale": 0.0010484007351538715,
            "original_dtype": "float32"
          }
        },
        {
          "name": "StatefulPartitionedCall/ssd_mobile_net_v2keras_feature_extractor/functional_1/block_5_expand/Conv2D_bn_offset",
          "shape": [
            192
          ],
          "dtype": "float32",
          "quantization": {
            "dtype": "uint8",
            "min": -1.4413284068014107,
            "scale": 0.01347035894206926,
            "original_dtype": "float32"
          }
        },
        {
          "name": "StatefulPartitionedCall/ssd_mobile_net_v2keras_feature_extractor/functional_1/block_5_depthwise/depthwise_weights",
          "shape": [
            3,
            3,
            192,
            1
          ],
          "dtype": "float32",
          "quantization": {
            "dtype": "uint8",
            "min": -3.1725153277902045,
            "scale": 0.024980435651891373,
            "original_dtype": "float32"
          }
        },
        {
          "name": "StatefulPartitionedCall/ssd_mobile_net_v2keras_feature_extractor/functional_1/block_5_depthwise/depthwise_bn_offset",
          "shape": [
            192
          ],
          "dtype": "float32",
          "quantization": {
            "dtype": "uint8",
            "min": -6.308417937334846,
            "scale": 0.0362552755019244,
            "original_dtype": "float32"
          }
        },
        {
          "name": "StatefulPartitionedCall/ssd_mobile_net_v2keras_feature_extractor/functional_1/block_5_project/Conv2D_weights",
          "shape": [
            1,
            1,
            192,
            32
          ],
          "dtype": "float32",
          "quantization": {
            "dtype": "uint8",
            "min": -1.756144162720325,
            "scale": 0.012028384676166608,
            "original_dtype": "float32"
          }
        },
        {
          "name": "StatefulPartitionedCall/ssd_mobile_net_v2keras_feature_extractor/functional_1/block_5_project/Conv2D_bn_offset",
          "shape": [
            32
          ],
          "dtype": "float32",
          "quantization": {
            "dtype": "uint8",
            "min": -4.0858665971195,
            "scale": 0.03680960898305856,
            "original_dtype": "float32"
          }
        },
        {
          "name": "StatefulPartitionedCall/ssd_mobile_net_v2keras_feature_extractor/functional_1/block_6_expand/Conv2D_weights",
          "shape": [
            1,
            1,
            32,
            192
          ],
          "dtype": "float32",
          "quantization": {
            "dtype": "uint8",
            "min": -0.12495094888350543,
            "scale": 0.0010412579073625452,
            "original_dtype": "float32"
          }
        },
        {
          "name": "StatefulPartitionedCall/ssd_mobile_net_v2keras_feature_extractor/functional_1/block_6_expand/Conv2D_bn_offset",
          "shape": [
            192
          ],
          "dtype": "float32",
          "quantization": {
            "dtype": "uint8",
            "min": -2.141082643995098,
            "scale": 0.016727208156211704,
            "original_dtype": "float32"
          }
        },
        {
          "name": "StatefulPartitionedCall/ssd_mobile_net_v2keras_feature_extractor/functional_1/block_6_depthwise/depthwise_weights",
          "shape": [
            3,
            3,
            192,
            1
          ],
          "dtype": "float32",
          "quantization": {
            "dtype": "uint8",
            "min": -1.2790014631607953,
            "scale": 0.012066051539252786,
            "original_dtype": "float32"
          }
        },
        {
          "name": "StatefulPartitionedCall/ssd_mobile_net_v2keras_feature_extractor/functional_1/block_6_depthwise/depthwise_bn_offset",
          "shape": [
            192
          ],
          "dtype": "float32",
          "quantization": {
            "dtype": "uint8",
            "min": -4.096860812692081,
            "scale": 0.041382432451435164,
            "original_dtype": "float32"
          }
        },
        {
          "name": "StatefulPartitionedCall/ssd_mobile_net_v2keras_feature_extractor/functional_1/block_6_project/Conv2D_weights",
          "shape": [
            1,
            1,
            192,
            64
          ],
          "dtype": "float32",
          "quantization": {
            "dtype": "uint8",
            "min": -0.7184106716922685,
            "scale": 0.005656776942458807,
            "original_dtype": "float32"
          }
        },
        {
          "name": "StatefulPartitionedCall/ssd_mobile_net_v2keras_feature_extractor/functional_1/block_6_project/Conv2D_bn_offset",
          "shape": [
            64
          ],
          "dtype": "float32",
          "quantization": {
            "dtype": "uint8",
            "min": -6.314602453568402,
            "scale": 0.04895040661680932,
            "original_dtype": "float32"
          }
        },
        {
          "name": "StatefulPartitionedCall/ssd_mobile_net_v2keras_feature_extractor/functional_1/block_7_expand/Conv2D_weights",
          "shape": [
            1,
            1,
            64,
            384
          ],
          "dtype": "float32",
          "quantization": {
            "dtype": "uint8",
            "min": -0.09537395668380401,
            "scale": 0.0007753980218195448,
            "original_dtype": "float32"
          }
        },
        {
          "name": "StatefulPartitionedCall/ssd_mobile_net_v2keras_feature_extractor/functional_1/block_7_expand/Conv2D_bn_offset",
          "shape": [
            384
          ],
          "dtype": "float32",
          "quantization": {
            "dtype": "uint8",
            "min": -1.6501345185672536,
            "scale": 0.017554622537949507,
            "original_dtype": "float32"
          }
        },
        {
          "name": "StatefulPartitionedCall/ssd_mobile_net_v2keras_feature_extractor/functional_1/block_7_depthwise/depthwise_weights",
          "shape": [
            3,
            3,
            384,
            1
          ],
          "dtype": "float32",
          "quantization": {
            "dtype": "uint8",
            "min": -2.699109234529383,
            "scale": 0.0195587625690535,
            "original_dtype": "float32"
          }
        },
        {
          "name": "StatefulPartitionedCall/ssd_mobile_net_v2keras_feature_extractor/functional_1/block_7_depthwise/depthwise_bn_offset",
          "shape": [
            384
          ],
          "dtype": "float32",
          "quantization": {
            "dtype": "uint8",
            "min": -4.521911149866441,
            "scale": 0.03505357480516621,
            "original_dtype": "float32"
          }
        },
        {
          "name": "StatefulPartitionedCall/ssd_mobile_net_v2keras_feature_extractor/functional_1/block_7_project/Conv2D_weights",
          "shape": [
            1,
            1,
            384,
            64
          ],
          "dtype": "float32",
          "quantization": {
            "dtype": "uint8",
            "min": -0.7626862245447495,
            "scale": 0.006355718537872913,
            "original_dtype": "float32"
          }
        },
        {
          "name": "StatefulPartitionedCall/ssd_mobile_net_v2keras_feature_extractor/functional_1/block_7_project/Conv2D_bn_offset",
          "shape": [
            64
          ],
          "dtype": "float32",
          "quantization": {
            "dtype": "uint8",
            "min": -4.495657118629007,
            "scale": 0.024170199562521543,
            "original_dtype": "float32"
          }
        },
        {
          "name": "StatefulPartitionedCall/ssd_mobile_net_v2keras_feature_extractor/functional_1/block_8_expand/Conv2D_weights",
          "shape": [
            1,
            1,
            64,
            384
          ],
          "dtype": "float32",
          "quantization": {
            "dtype": "uint8",
            "min": -0.08145749072233835,
            "scale": 0.0007405226429303487,
            "original_dtype": "float32"
          }
        },
        {
          "name": "StatefulPartitionedCall/ssd_mobile_net_v2keras_feature_extractor/functional_1/block_8_expand/Conv2D_bn_offset",
          "shape": [
            384
          ],
          "dtype": "float32",
          "quantization": {
            "dtype": "uint8",
            "min": -1.2205143895803712,
            "scale": 0.009610349524254892,
            "original_dtype": "float32"
          }
        },
        {
          "name": "StatefulPartitionedCall/ssd_mobile_net_v2keras_feature_extractor/functional_1/block_8_depthwise/depthwise_weights",
          "shape": [
            3,
            3,
            384,
            1
          ],
          "dtype": "float32",
          "quantization": {
            "dtype": "uint8",
            "min": -3.434625910777672,
            "scale": 0.027477007286221374,
            "original_dtype": "float32"
          }
        },
        {
          "name": "StatefulPartitionedCall/ssd_mobile_net_v2keras_feature_extractor/functional_1/block_8_depthwise/depthwise_bn_offset",
          "shape": [
            384
          ],
          "dtype": "float32",
          "quantization": {
            "dtype": "uint8",
            "min": -3.9265547406439687,
            "scale": 0.02707968786651013,
            "original_dtype": "float32"
          }
        },
        {
          "name": "StatefulPartitionedCall/ssd_mobile_net_v2keras_feature_extractor/functional_1/block_8_project/Conv2D_weights",
          "shape": [
            1,
            1,
            384,
            64
          ],
          "dtype": "float32",
          "quantization": {
            "dtype": "uint8",
            "min": -1.1973169004215913,
            "scale": 0.009281526359857297,
            "original_dtype": "float32"
          }
        },
        {
          "name": "StatefulPartitionedCall/ssd_mobile_net_v2keras_feature_extractor/functional_1/block_8_project/Conv2D_bn_offset",
          "shape": [
            64
          ],
          "dtype": "float32",
          "quantization": {
            "dtype": "uint8",
            "min": -2.77464163537119,
            "scale": 0.019818868824079926,
            "original_dtype": "float32"
          }
        },
        {
          "name": "StatefulPartitionedCall/ssd_mobile_net_v2keras_feature_extractor/functional_1/block_9_expand/Conv2D_weights",
          "shape": [
            1,
            1,
            64,
            384
          ],
          "dtype": "float32",
          "quantization": {
            "dtype": "uint8",
            "min": -0.07719570485984578,
            "scale": 0.0005984163167429905,
            "original_dtype": "float32"
          }
        },
        {
          "name": "StatefulPartitionedCall/ssd_mobile_net_v2keras_feature_extractor/functional_1/block_9_expand/Conv2D_bn_offset",
          "shape": [
            384
          ],
          "dtype": "float32",
          "quantization": {
            "dtype": "uint8",
            "min": -1.8602708956774543,
            "scale": 0.013578619676477768,
            "original_dtype": "float32"
          }
        },
        {
          "name": "StatefulPartitionedCall/ssd_mobile_net_v2keras_feature_extractor/functional_1/block_9_depthwise/depthwise_weights",
          "shape": [
            3,
            3,
            384,
            1
          ],
          "dtype": "float32",
          "quantization": {
            "dtype": "uint8",
            "min": -3.565811456418505,
            "scale": 0.02742931889552696,
            "original_dtype": "float32"
          }
        },
        {
          "name": "StatefulPartitionedCall/ssd_mobile_net_v2keras_feature_extractor/functional_1/block_9_depthwise/depthwise_bn_offset",
          "shape": [
            384
          ],
          "dtype": "float32",
          "quantization": {
            "dtype": "uint8",
            "min": -3.8770461559295653,
            "scale": 0.02534017095378801,
            "original_dtype": "float32"
          }
        },
        {
          "name": "StatefulPartitionedCall/ssd_mobile_net_v2keras_feature_extractor/functional_1/block_9_project/Conv2D_weights",
          "shape": [
            1,
            1,
            384,
            64
          ],
          "dtype": "float32",
          "quantization": {
            "dtype": "uint8",
            "min": -1.34628018023921,
            "scale": 0.012945001733069327,
            "original_dtype": "float32"
          }
        },
        {
          "name": "StatefulPartitionedCall/ssd_mobile_net_v2keras_feature_extractor/functional_1/block_9_project/Conv2D_bn_offset",
          "shape": [
            64
          ],
          "dtype": "float32",
          "quantization": {
            "dtype": "uint8",
            "min": -2.6895852565765384,
            "scale": 0.022601556777954102,
            "original_dtype": "float32"
          }
        },
        {
          "name": "StatefulPartitionedCall/ssd_mobile_net_v2keras_feature_extractor/functional_1/block_10_expand/Conv2D_weights",
          "shape": [
            1,
            1,
            64,
            384
          ],
          "dtype": "float32",
          "quantization": {
            "dtype": "uint8",
            "min": -0.07327849765618642,
            "scale": 0.0006157856945898019,
            "original_dtype": "float32"
          }
        },
        {
          "name": "StatefulPartitionedCall/ssd_mobile_net_v2keras_feature_extractor/functional_1/block_10_expand/Conv2D_bn_offset",
          "shape": [
            384
          ],
          "dtype": "float32",
          "quantization": {
            "dtype": "uint8",
            "min": -1.7116952989615646,
            "scale": 0.020874332914165423,
            "original_dtype": "float32"
          }
        },
        {
          "name": "StatefulPartitionedCall/ssd_mobile_net_v2keras_feature_extractor/functional_1/block_10_depthwise/depthwise_weights",
          "shape": [
            3,
            3,
            384,
            1
          ],
          "dtype": "float32",
          "quantization": {
            "dtype": "uint8",
            "min": -3.1265675937428195,
            "scale": 0.0246186424704159,
            "original_dtype": "float32"
          }
        },
        {
          "name": "StatefulPartitionedCall/ssd_mobile_net_v2keras_feature_extractor/functional_1/block_10_depthwise/depthwise_bn_offset",
          "shape": [
            384
          ],
          "dtype": "float32",
          "quantization": {
            "dtype": "uint8",
            "min": -7.40121877894682,
            "scale": 0.044855871387556485,
            "original_dtype": "float32"
          }
        },
        {
          "name": "StatefulPartitionedCall/ssd_mobile_net_v2keras_feature_extractor/functional_1/block_10_project/Conv2D_weights",
          "shape": [
            1,
            1,
            384,
            96
          ],
          "dtype": "float32",
          "quantization": {
            "dtype": "uint8",
            "min": -0.633387445936016,
            "scale": 0.005919508840523514,
            "original_dtype": "float32"
          }
        },
        {
          "name": "StatefulPartitionedCall/ssd_mobile_net_v2keras_feature_extractor/functional_1/block_10_project/Conv2D_bn_offset",
          "shape": [
            96
          ],
          "dtype": "float32",
          "quantization": {
            "dtype": "uint8",
            "min": -6.569563495411592,
            "scale": 0.041579515793744255,
            "original_dtype": "float32"
          }
        },
        {
          "name": "StatefulPartitionedCall/ssd_mobile_net_v2keras_feature_extractor/functional_1/block_11_expand/Conv2D_weights",
          "shape": [
            1,
            1,
            96,
            576
          ],
          "dtype": "float32",
          "quantization": {
            "dtype": "uint8",
            "min": -0.15585050220583,
            "scale": 0.001198850016967923,
            "original_dtype": "float32"
          }
        },
        {
          "name": "StatefulPartitionedCall/ssd_mobile_net_v2keras_feature_extractor/functional_1/block_11_expand/Conv2D_bn_offset",
          "shape": [
            576
          ],
          "dtype": "float32",
          "quantization": {
            "dtype": "uint8",
            "min": -1.405907584171669,
            "scale": 0.013919877071006625,
            "original_dtype": "float32"
          }
        },
        {
          "name": "StatefulPartitionedCall/ssd_mobile_net_v2keras_feature_extractor/functional_1/block_11_depthwise/depthwise_weights",
          "shape": [
            3,
            3,
            576,
            1
          ],
          "dtype": "float32",
          "quantization": {
            "dtype": "uint8",
            "min": -2.607911511963489,
            "scale": 0.023708286472395354,
            "original_dtype": "float32"
          }
        },
        {
          "name": "StatefulPartitionedCall/ssd_mobile_net_v2keras_feature_extractor/functional_1/block_11_depthwise/depthwise_bn_offset",
          "shape": [
            576
          ],
          "dtype": "float32",
          "quantization": {
            "dtype": "uint8",
            "min": -3.550565242767334,
            "scale": 0.03034671147664388,
            "original_dtype": "float32"
          }
        },
        {
          "name": "StatefulPartitionedCall/ssd_mobile_net_v2keras_feature_extractor/functional_1/block_11_project/Conv2D_weights",
          "shape": [
            1,
            1,
            576,
            96
          ],
          "dtype": "float32",
          "quantization": {
            "dtype": "uint8",
            "min": -0.6030547001782586,
            "scale": 0.004568596213471656,
            "original_dtype": "float32"
          }
        },
        {
          "name": "StatefulPartitionedCall/ssd_mobile_net_v2keras_feature_extractor/functional_1/block_11_project/Conv2D_bn_offset",
          "shape": [
            96
          ],
          "dtype": "float32",
          "quantization": {
            "dtype": "uint8",
            "min": -3.4418879200430474,
            "scale": 0.023099918926463407,
            "original_dtype": "float32"
          }
        },
        {
          "name": "StatefulPartitionedCall/ssd_mobile_net_v2keras_feature_extractor/functional_1/block_12_expand/Conv2D_weights",
          "shape": [
            1,
            1,
            96,
            576
          ],
          "dtype": "float32",
          "quantization": {
            "dtype": "uint8",
            "min": -0.07965780338820289,
            "scale": 0.0005772304593348036,
            "original_dtype": "float32"
          }
        },
        {
          "name": "StatefulPartitionedCall/ssd_mobile_net_v2keras_feature_extractor/functional_1/block_12_expand/Conv2D_bn_offset",
          "shape": [
            576
          ],
          "dtype": "float32",
          "quantization": {
            "dtype": "uint8",
            "min": -1.9531637977151308,
            "scale": 0.015879380469228706,
            "original_dtype": "float32"
          }
        },
        {
          "name": "StatefulPartitionedCall/ssd_mobile_net_v2keras_feature_extractor/functional_1/block_12_depthwise/depthwise_weights",
          "shape": [
            3,
            3,
            576,
            1
          ],
          "dtype": "float32",
          "quantization": {
            "dtype": "uint8",
            "min": -1.935920209043166,
            "scale": 0.01809271223404828,
            "original_dtype": "float32"
          }
        },
        {
          "name": "StatefulPartitionedCall/ssd_mobile_net_v2keras_feature_extractor/functional_1/block_12_depthwise/depthwise_bn_offset",
          "shape": [
            576
          ],
          "dtype": "float32",
          "quantization": {
            "dtype": "uint8",
            "min": -7.21772591085995,
            "scale": 0.03880497801537607,
            "original_dtype": "float32"
          }
        },
        {
          "name": "StatefulPartitionedCall/ssd_mobile_net_v2keras_feature_extractor/functional_1/block_12_project/Conv2D_weights",
          "shape": [
            1,
            1,
            576,
            96
          ],
          "dtype": "float32",
          "quantization": {
            "dtype": "uint8",
            "min": -0.9095053630716661,
            "scale": 0.0065906185729830875,
            "original_dtype": "float32"
          }
        },
        {
          "name": "StatefulPartitionedCall/ssd_mobile_net_v2keras_feature_extractor/functional_1/block_12_project/Conv2D_bn_offset",
          "shape": [
            96
          ],
          "dtype": "float32",
          "quantization": {
            "dtype": "uint8",
            "min": -3.3340885835535383,
            "scale": 0.034730089412016024,
            "original_dtype": "float32"
          }
        },
        {
          "name": "StatefulPartitionedCall/ssd_mobile_net_v2keras_feature_extractor/functional_1/block_13_expand/Conv2D_weights",
          "shape": [
            1,
            1,
            96,
            576
          ],
          "dtype": "float32",
          "quantization": {
            "dtype": "uint8",
            "min": -0.09156773581224328,
            "scale": 0.0007384494823568007,
            "original_dtype": "float32"
          }
        },
        {
          "name": "StatefulPartitionedCall/ssd_mobile_net_v2keras_feature_extractor/functional_1/block_13_expand/Conv2D_bn_offset",
          "shape": [
            576
          ],
          "dtype": "float32",
          "quantization": {
            "dtype": "uint8",
            "min": -2.033283401938046,
            "scale": 0.014523452870986041,
            "original_dtype": "float32"
          }
        },
        {
          "name": "StatefulPartitionedCall/ssd_mobile_net_v2keras_feature_extractor/functional_1/block_13_depthwise/depthwise_weights",
          "shape": [
            3,
            3,
            576,
            1
          ],
          "dtype": "float32",
          "quantization": {
            "dtype": "uint8",
            "min": -4.363281661388921,
            "scale": 0.027791602938782935,
            "original_dtype": "float32"
          }
        },
        {
          "name": "StatefulPartitionedCall/ssd_mobile_net_v2keras_feature_extractor/functional_1/block_13_depthwise/depthwise_bn_offset",
          "shape": [
            576
          ],
          "dtype": "float32",
          "quantization": {
            "dtype": "uint8",
            "min": -2.8881323477801155,
            "scale": 0.027506022359810624,
            "original_dtype": "float32"
          }
        },
        {
          "name": "StatefulPartitionedCall/ssd_mobile_net_v2keras_feature_extractor/functional_1/block_13_project/Conv2D_weights",
          "shape": [
            1,
            1,
            576,
            160
          ],
          "dtype": "float32",
          "quantization": {
            "dtype": "uint8",
            "min": -0.5779800412701626,
            "scale": 0.004218832418030383,
            "original_dtype": "float32"
          }
        },
        {
          "name": "StatefulPartitionedCall/ssd_mobile_net_v2keras_feature_extractor/functional_1/block_13_project/Conv2D_bn_offset",
          "shape": [
            160
          ],
          "dtype": "float32",
          "quantization": {
            "dtype": "uint8",
            "min": -5.559472370147706,
            "scale": 0.046718255211325256,
            "original_dtype": "float32"
          }
        },
        {
          "name": "StatefulPartitionedCall/ssd_mobile_net_v2keras_feature_extractor/functional_1/block_14_expand/Conv2D_weights",
          "shape": [
            1,
            1,
            160,
            960
          ],
          "dtype": "float32",
          "quantization": {
            "dtype": "uint8",
            "min": -0.1635445451035219,
            "scale": 0.001267787171345131,
            "original_dtype": "float32"
          }
        },
        {
          "name": "StatefulPartitionedCall/ssd_mobile_net_v2keras_feature_extractor/functional_1/block_14_expand/Conv2D_bn_offset",
          "shape": [
            960
          ],
          "dtype": "float32",
          "quantization": {
            "dtype": "uint8",
            "min": -1.6797960505766028,
            "scale": 0.016797960505766027,
            "original_dtype": "float32"
          }
        },
        {
          "name": "StatefulPartitionedCall/ssd_mobile_net_v2keras_feature_extractor/functional_1/block_14_depthwise/depthwise_weights",
          "shape": [
            3,
            3,
            960,
            1
          ],
          "dtype": "float32",
          "quantization": {
            "dtype": "uint8",
            "min": -4.372658030192057,
            "scale": 0.03215189728082395,
            "original_dtype": "float32"
          }
        },
        {
          "name": "StatefulPartitionedCall/ssd_mobile_net_v2keras_feature_extractor/functional_1/block_14_depthwise/depthwise_bn_offset",
          "shape": [
            960
          ],
          "dtype": "float32",
          "quantization": {
            "dtype": "uint8",
            "min": -3.650186198365455,
            "scale": 0.04620488858690449,
            "original_dtype": "float32"
          }
        },
        {
          "name": "StatefulPartitionedCall/ssd_mobile_net_v2keras_feature_extractor/functional_1/block_14_project/Conv2D_weights",
          "shape": [
            1,
            1,
            960,
            160
          ],
          "dtype": "float32",
          "quantization": {
            "dtype": "uint8",
            "min": -1.1536340367560294,
            "scale": 0.007034353882658715,
            "original_dtype": "float32"
          }
        },
        {
          "name": "StatefulPartitionedCall/ssd_mobile_net_v2keras_feature_extractor/functional_1/block_14_project/Conv2D_bn_offset",
          "shape": [
            160
          ],
          "dtype": "float32",
          "quantization": {
            "dtype": "uint8",
            "min": -2.7800274624544032,
            "scale": 0.02297543357400333,
            "original_dtype": "float32"
          }
        },
        {
          "name": "StatefulPartitionedCall/ssd_mobile_net_v2keras_feature_extractor/functional_1/block_15_expand/Conv2D_weights",
          "shape": [
            1,
            1,
            160,
            960
          ],
          "dtype": "float32",
          "quantization": {
            "dtype": "uint8",
            "min": -0.09445124128285577,
            "scale": 0.0007155397066883013,
            "original_dtype": "float32"
          }
        },
        {
          "name": "StatefulPartitionedCall/ssd_mobile_net_v2keras_feature_extractor/functional_1/block_15_expand/Conv2D_bn_offset",
          "shape": [
            960
          ],
          "dtype": "float32",
          "quantization": {
            "dtype": "uint8",
            "min": -2.003228907024159,
            "scale": 0.014207297212937299,
            "original_dtype": "float32"
          }
        },
        {
          "name": "StatefulPartitionedCall/ssd_mobile_net_v2keras_feature_extractor/functional_1/block_15_depthwise/depthwise_weights",
          "shape": [
            3,
            3,
            960,
            1
          ],
          "dtype": "float32",
          "quantization": {
            "dtype": "uint8",
            "min": -4.538417563718908,
            "scale": 0.03361790787939932,
            "original_dtype": "float32"
          }
        },
        {
          "name": "StatefulPartitionedCall/ssd_mobile_net_v2keras_feature_extractor/functional_1/block_15_depthwise/depthwise_bn_offset",
          "shape": [
            960
          ],
          "dtype": "float32",
          "quantization": {
            "dtype": "uint8",
            "min": -5.134571230645273,
            "scale": 0.028845905790141985,
            "original_dtype": "float32"
          }
        },
        {
          "name": "StatefulPartitionedCall/ssd_mobile_net_v2keras_feature_extractor/functional_1/block_15_project/Conv2D_weights",
          "shape": [
            1,
            1,
            960,
            160
          ],
          "dtype": "float32",
          "quantization": {
            "dtype": "uint8",
            "min": -1.7594409942626954,
            "scale": 0.012937066134284525,
            "original_dtype": "float32"
          }
        },
        {
          "name": "StatefulPartitionedCall/ssd_mobile_net_v2keras_feature_extractor/functional_1/block_15_project/Conv2D_bn_offset",
          "shape": [
            160
          ],
          "dtype": "float32",
          "quantization": {
            "dtype": "uint8",
            "min": -7.554322149239335,
            "scale": 0.05514103758568857,
            "original_dtype": "float32"
          }
        },
        {
          "name": "StatefulPartitionedCall/ssd_mobile_net_v2keras_feature_extractor/functional_1/block_16_expand/Conv2D_weights",
          "shape": [
            1,
            1,
            160,
            960
          ],
          "dtype": "float32",
          "quantization": {
            "dtype": "uint8",
            "min": -0.0817636252326124,
            "scale": 0.0006647449205903446,
            "original_dtype": "float32"
          }
        },
        {
          "name": "StatefulPartitionedCall/ssd_mobile_net_v2keras_feature_extractor/functional_1/block_16_expand/Conv2D_bn_offset",
          "shape": [
            960
          ],
          "dtype": "float32",
          "quantization": {
            "dtype": "uint8",
            "min": -1.6487535027896658,
            "scale": 0.01526623613694135,
            "original_dtype": "float32"
          }
        },
        {
          "name": "StatefulPartitionedCall/ssd_mobile_net_v2keras_feature_extractor/functional_1/block_16_depthwise/depthwise_weights",
          "shape": [
            3,
            3,
            960,
            1
          ],
          "dtype": "float32",
          "quantization": {
            "dtype": "uint8",
            "min": -3.3676164748621917,
            "scale": 0.03269530558118633,
            "original_dtype": "float32"
          }
        },
        {
          "name": "StatefulPartitionedCall/ssd_mobile_net_v2keras_feature_extractor/functional_1/block_16_depthwise/depthwise_bn_offset",
          "shape": [
            960
          ],
          "dtype": "float32",
          "quantization": {
            "dtype": "uint8",
            "min": -6.017959175857843,
            "scale": 0.0940306121227788,
            "original_dtype": "float32"
          }
        },
        {
          "name": "StatefulPartitionedCall/ssd_mobile_net_v2keras_feature_extractor/functional_1/block_16_project/Conv2D_weights",
          "shape": [
            1,
            1,
            960,
            320
          ],
          "dtype": "float32",
          "quantization": {
            "dtype": "uint8",
            "min": -0.26166062226482467,
            "scale": 0.002315580728007298,
            "original_dtype": "float32"
          }
        },
        {
          "name": "StatefulPartitionedCall/ssd_mobile_net_v2keras_feature_extractor/functional_1/block_16_project/Conv2D_bn_offset",
          "shape": [
            320
          ],
          "dtype": "float32",
          "quantization": {
            "dtype": "uint8",
            "min": -3.686459659127628,
            "scale": 0.02771774179795209,
            "original_dtype": "float32"
          }
        },
        {
          "name": "StatefulPartitionedCall/ssd_mobile_net_v2keras_feature_extractor/functional_1/Conv_1/Conv2D_weights",
          "shape": [
            1,
            1,
            320,
            1280
          ],
          "dtype": "float32",
          "quantization": {
            "dtype": "uint8",
            "min": -0.21941439071122337,
            "scale": 0.0018753366727454989,
            "original_dtype": "float32"
          }
        },
        {
          "name": "StatefulPartitionedCall/ssd_mobile_net_v2keras_feature_extractor/functional_1/Conv_1/Conv2D_bn_offset",
          "shape": [
            1280
          ],
          "dtype": "float32",
          "quantization": {
            "dtype": "uint8",
            "min": -4.999184846878052,
            "scale": 0.023805642127990724,
            "original_dtype": "float32"
          }
        },
        {
          "name": "StatefulPartitionedCall/ssd_mobile_net_v2keras_feature_extractor/FeatureMaps/layer_19_1_Conv2d_2_1x1_256_conv/Conv2D_weights",
          "shape": [
            1,
            1,
            1280,
            256
          ],
          "dtype": "float32",
          "quantization": {
            "dtype": "uint8",
            "min": -0.49797542200368994,
            "scale": 0.00572385542532977,
            "original_dtype": "float32"
          }
        },
        {
          "name": "StatefulPartitionedCall/ssd_mobile_net_v2keras_feature_extractor/FeatureMaps/layer_19_1_Conv2d_2_1x1_256_conv/Conv2D_bn_offset",
          "shape": [
            256
          ],
          "dtype": "float32",
          "quantization": {
            "dtype": "uint8",
            "min": -1.8833860509535845,
            "scale": 0.01961860469743317,
            "original_dtype": "float32"
          }
        },
        {
          "name": "StatefulPartitionedCall/ssd_mobile_net_v2keras_feature_extractor/FeatureMaps/layer_19_2_Conv2d_2_3x3_s2_512_conv/Conv2D_weights",
          "shape": [
            3,
            3,
            256,
            512
          ],
          "dtype": "float32",
          "quantization": {
            "dtype": "uint8",
            "min": -0.15648697947754578,
            "scale": 0.001409792607905818,
            "original_dtype": "float32"
          }
        },
        {
          "name": "StatefulPartitionedCall/ssd_mobile_net_v2keras_feature_extractor/FeatureMaps/layer_19_2_Conv2d_2_3x3_s2_512_conv/Conv2D_bn_offset",
          "shape": [
            512
          ],
          "dtype": "float32",
          "quantization": {
            "dtype": "uint8",
            "min": -1.3680103582494398,
            "scale": 0.012666762576383703,
            "original_dtype": "float32"
          }
        },
        {
          "name": "StatefulPartitionedCall/ssd_mobile_net_v2keras_feature_extractor/FeatureMaps/layer_19_1_Conv2d_3_1x1_128_conv/Conv2D_weights",
          "shape": [
            1,
            1,
            512,
            128
          ],
          "dtype": "float32",
          "quantization": {
            "dtype": "uint8",
            "min": -0.39171361923217773,
            "scale": 0.003766477108001709,
            "original_dtype": "float32"
          }
        },
        {
          "name": "StatefulPartitionedCall/ssd_mobile_net_v2keras_feature_extractor/FeatureMaps/layer_19_1_Conv2d_3_1x1_128_conv/Conv2D_bn_offset",
          "shape": [
            128
          ],
          "dtype": "float32",
          "quantization": {
            "dtype": "uint8",
            "min": -2.6298036743612854,
            "scale": 0.023068453283870922,
            "original_dtype": "float32"
          }
        },
        {
          "name": "StatefulPartitionedCall/ssd_mobile_net_v2keras_feature_extractor/FeatureMaps/layer_19_2_Conv2d_3_3x3_s2_256_conv/Conv2D_weights",
          "shape": [
            3,
            3,
            128,
            256
          ],
          "dtype": "float32",
          "quantization": {
            "dtype": "uint8",
            "min": -0.22181548850209107,
            "scale": 0.0020730419486176734,
            "original_dtype": "float32"
          }
        },
        {
          "name": "StatefulPartitionedCall/ssd_mobile_net_v2keras_feature_extractor/FeatureMaps/layer_19_2_Conv2d_3_3x3_s2_256_conv/Conv2D_bn_offset",
          "shape": [
            256
          ],
          "dtype": "float32",
          "quantization": {
            "dtype": "uint8",
            "min": -0.5789122525383444,
            "scale": 0.012060671927882176,
            "original_dtype": "float32"
          }
        },
        {
          "name": "StatefulPartitionedCall/ssd_mobile_net_v2keras_feature_extractor/FeatureMaps/layer_19_1_Conv2d_4_1x1_128_conv/Conv2D_weights",
          "shape": [
            1,
            1,
            256,
            128
          ],
          "dtype": "float32",
          "quantization": {
            "dtype": "uint8",
            "min": -0.6007743557294211,
            "scale": 0.004730506738026937,
            "original_dtype": "float32"
          }
        },
        {
          "name": "StatefulPartitionedCall/ssd_mobile_net_v2keras_feature_extractor/FeatureMaps/layer_19_1_Conv2d_4_1x1_128_conv/Conv2D_bn_offset",
          "shape": [
            128
          ],
          "dtype": "float32",
          "quantization": {
            "dtype": "uint8",
            "min": -2.3306518891278434,
            "scale": 0.01701205758487477,
            "original_dtype": "float32"
          }
        },
        {
          "name": "StatefulPartitionedCall/ssd_mobile_net_v2keras_feature_extractor/FeatureMaps/layer_19_2_Conv2d_4_3x3_s2_256_conv/Conv2D_weights",
          "shape": [
            3,
            3,
            128,
            256
          ],
          "dtype": "float32",
          "quantization": {
            "dtype": "uint8",
            "min": -0.2230591917739195,
            "scale": 0.002372970125254463,
            "original_dtype": "float32"
          }
        },
        {
          "name": "StatefulPartitionedCall/ssd_mobile_net_v2keras_feature_extractor/FeatureMaps/layer_19_2_Conv2d_4_3x3_s2_256_conv/Conv2D_bn_offset",
          "shape": [
            256
          ],
          "dtype": "float32",
          "quantization": {
            "dtype": "uint8",
            "min": -1.129624469607484,
            "scale": 0.01129624469607484,
            "original_dtype": "float32"
          }
        },
        {
          "name": "StatefulPartitionedCall/ssd_mobile_net_v2keras_feature_extractor/FeatureMaps/layer_19_1_Conv2d_5_1x1_64_conv/Conv2D_weights",
          "shape": [
            1,
            1,
            256,
            64
          ],
          "dtype": "float32",
          "quantization": {
            "dtype": "uint8",
            "min": -0.3783596380084169,
            "scale": 0.0037835963800841687,
            "original_dtype": "float32"
          }
        },
        {
          "name": "StatefulPartitionedCall/ssd_mobile_net_v2keras_feature_extractor/FeatureMaps/layer_19_1_Conv2d_5_1x1_64_conv/Conv2D_bn_offset",
          "shape": [
            64
          ],
          "dtype": "float32",
          "quantization": {
            "dtype": "uint8",
            "min": -3.5036314889496447,
            "scale": 0.021363606639936857,
            "original_dtype": "float32"
          }
        },
        {
          "name": "StatefulPartitionedCall/ssd_mobile_net_v2keras_feature_extractor/FeatureMaps/layer_19_2_Conv2d_5_3x3_s2_128_conv/Conv2D_weights",
          "shape": [
            3,
            3,
            64,
            128
          ],
          "dtype": "float32",
          "quantization": {
            "dtype": "uint8",
            "min": -0.44967790982302497,
            "scale": 0.00348587526994593,
            "original_dtype": "float32"
          }
        },
        {
          "name": "StatefulPartitionedCall/ssd_mobile_net_v2keras_feature_extractor/FeatureMaps/layer_19_2_Conv2d_5_3x3_s2_128_conv/Conv2D_bn_offset",
          "shape": [
            128
          ],
          "dtype": "float32",
          "quantization": {
            "dtype": "uint8",
            "min": -2.3331596617605173,
            "scale": 0.021210542379641064,
            "original_dtype": "float32"
          }
        },
        {
          "name": "ConstantFolding/StatefulPartitionedCall/Preprocessor/stack_const_axis",
          "shape": [],
          "dtype": "int32"
        },
        {
          "name": "ConstantFolding/StatefulPartitionedCall/Postprocessor/BatchMultiClassNonMaxSuppression/stack_12_const_axis",
          "shape": [],
          "dtype": "int32"
        },
        {
          "name": "ConstantFolding/StatefulPartitionedCall/Postprocessor/BatchMultiClassNonMaxSuppression/PadOrClipBoxList/Slice_1/size_const_axis",
          "shape": [],
          "dtype": "int32"
        },
        {
          "name": "ConstantFolding/StatefulPartitionedCall/Postprocessor/BatchMultiClassNonMaxSuppression/PadOrClipBoxList/Slice_3/size_const_axis",
          "shape": [],
          "dtype": "int32"
        },
        {
          "name": "ConstantFolding/StatefulPartitionedCall/Postprocessor/BatchMultiClassNonMaxSuppression/PadOrClipBoxList/Slice_5/size_const_axis",
          "shape": [],
          "dtype": "int32"
        },
        {
          "name": "ConstantFolding/StatefulPartitionedCall/Postprocessor/BatchMultiClassNonMaxSuppression/PadOrClipBoxList/stack_1/values_1_const_axis",
          "shape": [],
          "dtype": "int32"
        },
        {
          "name": "ConstantFolding/StatefulPartitionedCall/Postprocessor/BatchMultiClassNonMaxSuppression/PadOrClipBoxList/stack_3/values_1_const_axis",
          "shape": [],
          "dtype": "int32"
        },
        {
          "name": "ConstantFolding/StatefulPartitionedCall/Postprocessor/BatchMultiClassNonMaxSuppression/PadOrClipBoxList/stack_5/values_1_const_axis",
          "shape": [],
          "dtype": "int32"
        },
        {
          "name": "ConstantFolding/StatefulPartitionedCall/Postprocessor/BatchMultiClassNonMaxSuppression/stack_11_const_axis",
          "shape": [],
          "dtype": "int32"
        },
        {
          "name": "ConstantFolding/StatefulPartitionedCall/Postprocessor/BatchMultiClassNonMaxSuppression/stack_6_const_axis",
          "shape": [],
          "dtype": "int32"
        },
        {
          "name": "ConstantFolding/StatefulPartitionedCall/Postprocessor/BatchMultiClassNonMaxSuppression/stack_7_const_axis",
          "shape": [],
          "dtype": "int32"
        },
        {
          "name": "ConstantFolding/StatefulPartitionedCall/Postprocessor/BatchMultiClassNonMaxSuppression/stack_10_const_axis",
          "shape": [],
          "dtype": "int32"
        },
        {
          "name": "ConstantFolding/StatefulPartitionedCall/Postprocessor/BatchMultiClassNonMaxSuppression/stack_8_const_axis",
          "shape": [],
          "dtype": "int32"
        }
      ]
    }
  ]
}
